dqn_sanitizer.pth (torch, 72836 bytes, 6 tensors)

l1.weight f4 [128, 2]
0	0xbf0e11dc	-0.55496
1	0xbebf27ab	-0.37334952
2	0x3eef5c3c	0.46750057
3	0x3f0729bb	0.5279805
4	0xbe688155	-0.22705586
5	0xbe71ed95	-0.23625787
6	0xbd24126d	-0.040056635
7	0x3e620eb3	0.2207592
8	0x3e35dece	0.17760774
9	0xbeb1d8a3	-0.34735593
10	0xbe271412	-0.1631625
11	0xbe73b58e	-0.23799726
12	0x3ee2fdc2	0.44334227
13	0x3db9c2ff	0.09070396
14	0x3d8582c5	0.06519083
15	0x3e124766	0.14285049
16	0xbde12f93	-0.10995402
17	0x3daa7c18	0.0832445
18	0xbdb8eac3	-0.09029152
19	0x3e918483	0.2842141
20	0x3ee2e528	0.44315457
21	0x3ec51fe3	0.3850089
22	0x3e3672d0	0.17817235
23	0xbef388c1	-0.47565272
24	0x3e4e3950	0.2013905
25	0x3e59daec	0.21274918
26	0xbf0e39e7	-0.555571
27	0x3ebac1d2	0.36475998
28	0xbf08f01b	-0.5349137
29	0xbec662da	-0.38747293
30	0xbf2d26b2	-0.6763717
31	0x3ed14840	0.40875435
32	0xbd852765	-0.065016545
33	0x3db8f115	0.09030358
34	0x3f167e63	0.587866
35	0x3efea87c	0.49737918
36	0x3dc5a4a9	0.09650547
37	0x3ec1fb1d	0.37886897
38	0xbf0142a7	-0.5049233
39	0xbee5e652	-0.44902283
40	0xbf220479	-0.63288075
41	0xbf1eebff	-0.6207885
42	0x3f09e228	0.5386071
43	0x3f09a2fe	0.5376433
44	0x3f0e5e84	0.5561297
45	0x3ec506fb	0.38481888
46	0x3f14880a	0.5802008
47	0x3ef4f7ed	0.47845402
48	0x3ef28e2d	0.47374097
49	0xbe841706	-0.25798815
50	0xbebba8cf	-0.36652228
51	0x3e96b8a7	0.29437754
52	0x3d8b4872	0.06800927
53	0x3ef8f265	0.48622432
54	0xbf27baa5	-0.6551917
55	0xbe04da93	-0.12974004
56	0xbe963cda	-0.293433
57	0xbf0af5eb	-0.5428149
58	0x3f355700	0.70835876
59	0xbf044e78	-0.51682234
60	0x3e1a0b99	0.15043487
61	0x3e6bc4ec	0.23024338
62	0xbf05dc76	-0.5228952
63	0xbf005805	-0.5013431
64	0xbd9328ed	-0.0718554
65	0xbf1d3720	-0.6141224
66	0xbee2007b	-0.44140992
67	0xbe8258c2	-0.25458342
68	0x3e379fca	0.17932048
69	0xbecbf162	-0.39832598
70	0x3f209798	0.62731314
71	0x3e8657e3	0.26238927
72	0xbc445516	-0.011983177
73	0xbf2e6a75	-0.6813119
74	0x3e4e9c8c	0.20176905
75	0xbe496f08	-0.19671261
76	0xbdfe72c4	-0.124242336
77	0xbf2d6e22	-0.67746174
78	0x3e9161bb	0.28394875
79	0xbe6d1d5a	-0.23155728
80	0xbf0047dd	-0.50109655
81	0xbed8b322	-0.42324167
82	0xbf21bc58	-0.63178015
83	0xbeea367d	-0.45744696
84	0xbeca1f3f	-0.39476964
85	0x3e5f9e0e	0.21837637
86	0xbdf9ed75	-0.122034945
87	0xbe4347ad	-0.19070311
88	0xbf3282ad	-0.69730645
89	0xbdc7bae4	-0.097524434
90	0x3f32645b	0.6968438
91	0xbdd34825	-0.10316495
92	0x3f1fbbaa	0.6239573
93	0x3f16d9a6	0.58925855
94	0xb9bfab8e	-0.00036558177
95	0xbef5dc6d	-0.48019734
96	0xbcd00545	-0.025393138
97	0xbe18334e	-0.14863321
98	0x3ec0d534	0.3766266
99	0x3dc61829	0.09672577
100	0x3b129319	0.002236551
101	0x3eec8583	0.4619561
102	0xbe412ddc	-0.1886515
103	0xbf304183	-0.6884996
104	0x3dc7f262	0.09763028
105	0xbe912658	-0.28349566
106	0xbe89fb03	-0.2694932
107	0xbf2cfc3e	-0.6757239
108	0xbe7b5885	-0.24545486
109	0x3edfcd47	0.43711302
110	0xbedc7679	-0.43059137
111	0x3d444381	0.04791594
112	0xbef872b6	-0.48525017
113	0x3cf40e02	0.029791836
114	0xbe69d0a7	-0.22833501
115	0x3f321954	0.695699
116	0x3f32be9d	0.698221
117	0xbe4eaa83	-0.20182233
118	0xbdd9e5ce	-0.10639535
119	0xbf1b9c3b	-0.60785264
120	0xbc99b225	-0.018761704
121	0xbbca1d78	-0.0061680637
122	0xbe95e3bd	-0.29275313
123	0x3eb67d46	0.3564245
124	0x3ea74c0e	0.32675213
125	0x3f00d56b	0.5032565
126	0x3ef2315a	0.47303277
127	0x3e9c4d93	0.30527934
128	0xbf16e6de	-0.58946025
129	0xbd408f98	-0.04701194
130	0x3efb2799	0.49053648
131	0x3f3412ec	0.7034137
132	0x3ef2f61d	0.47453395
133	0x3e8500be	0.2597713
134	0x3ea78706	0.32720202
135	0x3c7c035f	0.015381663
136	0xbd20ec92	-0.03928811
137	0xbf006dc3	-0.50167483
138	0x3a3274fa	0.0006807592
139	0x3daea56a	0.08527644
140	0x3e87ef7e	0.26549906
141	0x3f2e601b	0.68115395
142	0x3eade6ff	0.339653
143	0xbeddb72e	-0.43303818
144	0xbf2d2333	-0.67631835
145	0x3e78c9c3	0.24295716
146	0x3eeb566b	0.4596437
147	0x3dbee4e0	0.09320998
148	0xbf26d8bc	-0.6517446
149	0x3efc9f3c	0.49340236
150	0xbecf5733	-0.40496215
151	0x3f13d944	0.57753396
152	0x3da65a51	0.08122695
153	0xbf2d3752	-0.6766254
154	0xbdfb955d	-0.12284348
155	0xbd502271	-0.050814096
156	0xbeb11c4e	-0.34591907
157	0x3ea0ca7e	0.3140449
158	0xbe07d251	-0.13263823
159	0xbecda658	-0.40165973
160	0xbf21326c	-0.6296756
161	0x3f07f2db	0.53104943
162	0x3f24404c	0.6416061
163	0xbf1a3b62	-0.6024686
164	0x3e8dcf57	0.2769725
165	0xbf34dece	-0.7065247
166	0x3f1a2bfa	0.6022335
167	0x3e9bafd5	0.30407587
168	0xbf0270c5	-0.5095332
169	0xbdfec0c4	-0.12439111
170	0xbf2e7ce3	-0.6815931
171	0xbf23422d	-0.6377285
172	0x3ee8dca7	0.45480844
173	0xbf1a5407	-0.60284466
174	0xbedbb165	-0.4290878
175	0xbdcaebe1	-0.099082716
176	0xbf0fae2d	-0.56125146
177	0xbeddc8a1	-0.4331713
178	0xbe3bc4f1	-0.18336846
179	0xbe634fe2	-0.22198442
180	0xbf203203	-0.6257631
181	0x3f12e8c2	0.5738641
182	0xbec3a91d	-0.3821496
183	0xbc224644	-0.009904448
184	0xbeb5e47f	-0.3552589
185	0x3f2f97d6	0.6859106
186	0xbcf60397	-0.030031009
187	0x3da44182	0.08020307
188	0x3f103466	0.56329954
189	0x3f09377a	0.53600276
190	0x3def9071	0.11697472
191	0x3e4992c7	0.19684897
192	0x3f210a04	0.6290591
193	0x3e93857f	0.28812787
194	0xbf0bcb54	-0.5460713
195	0x3d837067	0.064179234
196	0x3f287772	0.6580726
197	0xbf27728d	-0.65409166
198	0x3e3802f0	0.1796987
199	0x3f01c3cb	0.5068938
200	0xbed1c547	-0.40970823
201	0x3eb05bc1	0.34445003
202	0x3e2ed175	0.17072089
203	0xbeaef6a1	-0.34172538
204	0x3da80a61	0.082051046
205	0x3f2b599a	0.66933596
206	0x3f242ab3	0.64127654
207	0x3f289c2f	0.6586332
208	0xbe849052	-0.25891358
209	0xbf0b708e	-0.5446862
210	0x3e646135	0.22302707
211	0x3e8519ee	0.25996345
212	0xbe37b4c0	-0.17940044
213	0xbf12ed87	-0.5739369
214	0x3da958f6	0.08268921
215	0x3f3329da	0.69985735
216	0x3eb9d0ce	0.36292118
217	0xbd033061	-0.03202856
218	0xbe59d27a	-0.21271697
219	0x3e354b40	0.17704487
220	0xbe995b9a	-0.299527
221	0xbf2882a7	-0.6582436
222	0x3de84368	0.11340982
223	0xbc8fcf6d	-0.017554963
224	0x3ea006e9	0.31255272
225	0xbc9234d2	-0.017847452
226	0xbbbc9ae4	-0.005755769
227	0xbe8b642c	-0.27224863
228	0xbefd4b7e	-0.49471658
229	0xbdf46446	-0.11933188
230	0x3e9c43a1	0.30520347
231	0x3df9ba79	0.1219377
232	0xbe49310f	-0.1964762
233	0xbf00e43a	-0.50348246
234	0x3e844731	0.25835565
235	0xbe158616	-0.14601931
236	0x3dd73008	0.10507208
237	0x3c8cd471	0.017191144
238	0x3cf573ab	0.029962381
239	0x3e0e3cbf	0.1389036
240	0x3f0b9ccf	0.54536146
241	0xbef2d7d4	-0.4743029
242	0x3ecf9e70	0.40550566
243	0xbe9ecd96	-0.31016225
244	0x3dcff1cb	0.1015354
245	0xbe926847	-0.28595182
246	0x3efe1fdd	0.49633685
247	0xbeef2352	-0.46706635
248	0xbf154825	-0.5831321
249	0xbf2ac1b3	-0.6670181
250	0x3e86fa7e	0.26362985
251	0xbf337a0e	-0.70108116
252	0xbf0631e0	-0.52419853
253	0xbe7df004	-0.2479859
254	0xbf26931e	-0.65068233
255	0x3dfd956f	0.12382018

l1.bias f4 [128]
0	0xbed7f1a1	-0.42176536
1	0xbedd7f57	-0.43261215
2	0xbd9722f0	-0.07379711
3	0x3f0029d1	0.50063807
4	0x3f364cc9	0.71210915
5	0xbefecaf7	-0.49764225
6	0x3ed9b7b2	0.4252296
7	0xbf032ab6	-0.51237047
8	0x3ee19977	0.44062397
9	0x3f347f54	0.7050679
10	0xbebe8578	-0.37211204
11	0x3ea588d9	0.3233097
12	0xbe83828c	-0.25685537
13	0x3e269853	0.16269045
14	0x3ead4e9d	0.3384904
15	0x3e614dd2	0.22002342
16	0x3f304b60	0.68865013
17	0x3ec145e1	0.37748626
18	0x3dd1c09a	0.10241814
19	0xbf0e9298	-0.55692434
20	0x3d1b1ed5	0.0378712
21	0x3e460e24	0.19341332
22	0x3e06ca13	0.13163023
23	0xbf32868c	-0.6973655
24	0xbf03e4b8	-0.5152087
25	0xbec373c3	-0.38174257
26	0x3d3e80cb	0.046509545
27	0xbd86639e	-0.06561969
28	0xbd305f82	-0.043059833
29	0x3f117046	0.5681194
30	0xbed795d2	-0.4210649
31	0xbe077862	-0.13229516
32	0x3d966684	0.07343772
33	0x3ebfa71b	0.3743218
34	0xbe4d8e42	-0.20073798
35	0x3e55b9ad	0.20871611
36	0x3c46c1c4	0.012131158
37	0x3f1f6d41	0.62276083
38	0xbd9d9657	-0.07694691
39	0xbf1d15df	-0.613615
40	0xbe909de9	-0.28245476
41	0xbf1891e0	-0.5959759
42	0xbf0a01be	-0.5390891
43	0x3f2e8e67	0.6818604
44	0xbe3430e2	-0.17596772
45	0xbee7d529	-0.45279816
46	0x3e8da72e	0.2766661
47	0xbeafcb61	-0.34334853
48	0xbcce9292	-0.025216375
49	0x3e4172a7	0.18891393
50	0xbe1959a8	-0.14975607
51	0x3f3100e2	0.6914197
52	0xbede3f41	-0.43407634
53	0x3e355726	0.17709026
54	0x3e85cad1	0.261313
55	0x3e852f22	0.26012522
56	0x3ed3b28d	0.4134716
57	0x3f22fde6	0.6366867
58	0xbed48851	-0.4151025
59	0x3eb9f0dc	0.36316574
60	0x3ee461ac	0.44605768
61	0x3e522bcf	0.20524524
62	0x3e04bb1a	0.12961999
63	0x3ec33975	0.38129774
64	0x3f108e06	0.5646671
65	0xbf1f7104	-0.62281823
66	0xbf14fd65	-0.5819915
67	0xbeb8ede3	-0.36118993
68	0xbf1cc24e	-0.61233985
69	0x3e9cff55	0.30663553
70	0xbf31f914	-0.6952069
71	0xbe5bbedf	-0.2145953
72	0xbe5427f5	-0.20718367
73	0xbed15ed7	-0.4089267
74	0xbda1552c	-0.07877573
75	0x3e9cc93b	0.30622277
76	0xbe9419b5	-0.28925863
77	0xbe4d38ee	-0.20041248
78	0x3ee1044e	0.43948597
79	0xbe4edd4e	-0.20201609
80	0x3f3364e9	0.7007585
81	0xbe09b417	-0.13447605
82	0x3f2cfddc	0.6757486
83	0xbf296e1d	-0.66183645
84	0xbf2c91f4	-0.67410207
85	0x3ec27fdf	0.37988183
86	0x3ee5694f	0.44806907
87	0x3edb346b	0.4281343
88	0xbf2ae92e	-0.66762054
89	0xbd7f7fa4	-0.062377587
90	0x3ed90d01	0.42392734
91	0x3d2dd1de	0.042436473
92	0x3f20337a	0.62578547
93	0x3eff891f	0.49909303
94	0xbe0a8381	-0.13526727
95	0x3f21396d	0.6297825
96	0x3ded9541	0.116007335
97	0xbea999fe	-0.331253
98	0xbf0ab0b1	-0.5417586
99	0xbbfb27d2	-0.007664659
100	0xbf1c5e6b	-0.6108157
101	0x3e948eee	0.29015297
102	0xbe678b22	-0.22611669
103	0xbd5cbe0b	-0.053892177
104	0x3d1e1e8c	0.03860335
105	0xbec75325	-0.38930622
106	0x3ec99146	0.39368647
107	0xbde4c8a9	-0.111710854
108	0x3ed42bd2	0.41439682
109	0xbd103f81	-0.035216812
110	0x3ef5fb0a	0.4804309
111	0xbef25626	-0.4733135
112	0xbf232d5d	-0.63741094
113	0x3f1903be	0.59771335
114	0x3e5fb0fe	0.21844861
115	0xbf3038d7	-0.6883673
116	0xbeeaa959	-0.45832327
117	0xbf2ed055	-0.6828664
118	0xbf21266d	-0.6294926
119	0xbf267e17	-0.6503615
120	0x3ed55c45	0.4167196
121	0x3cff547a	0.031168211
122	0x3f097c52	0.5370532
123	0x3f307dbb	0.6894185
124	0xbeb5fa92	-0.35542732
125	0x3ea4934f	0.32143638
126	0xbed6ca20	-0.41951084
127	0x3f17711c	0.59156966

l2.weight f4 [128, 128]
0	0x3d4ff51b	0.05077086
1	0x3d570a3b	0.05249999
2	0x3c6ac4c3	0.014329138
3	0xbd82ad46	-0.063807055
4	0x3cc9df19	0.024642514
5	0x3d5919f1	0.053003255
6	0xbd3d26fd	-0.04617976
7	0xbc1b970a	-0.00949646
8	0x3c5ed087	0.0135995215
9	0x3c08c0cd	0.008346749
10	0xbd80557e	-0.06266306
11	0xbacc6de6	-0.0015596717
12	0xbd391bfb	-0.0451927
13	0x3a3127cf	0.0006757946
14	0xbd32a711	-0.04361636
15	0xbca19fe2	-0.019729558
16	0xbb540d7a	-0.0032356665
17	0x3c499332	0.0123031605
18	0xbc93dddd	-0.018050129
19	0x3cb43df1	0.022002192
20	0x3c8b5844	0.017009862
21	0x3cf4fe04	0.02990628
22	0x3d8b7fad	0.068114616
23	0x3d4f404c	0.050598428
24	0x3c500500	0.012696505
25	0xbd2c9863	-0.042137515
26	0xbc45f9bb	-0.012083466
27	0x3cd08abd	0.02545678
28	0xbd37ff4c	-0.044921204
29	0x3daa238a	0.0830756
30	0x3cb5048c	0.022096895
31	0x3d2ad644	0.041708246
32	0xbd952f90	-0.072844625
33	0x3d91e1bd	0.07123134
34	0x3d6c0139	0.057618354
35	0xbd1ce569	-0.03830472
36	0xbc5e7314	-0.013577241
37	0xbd8e14a6	-0.06937532
38	0xbd23747b	-0.039906006
39	0x3d2bbb42	0.04192663
40	0x3db34a24	0.087543756
41	0x3ca04e3f	0.01956856
42	0x3ca3d877	0.02000068
43	0x3cd1609a	0.025558759
44	0x3d4509d3	0.048105072
45	0x3d332909	0.043740306
46	0xbc08c7b6	-0.008348396
47	0x3d272488	0.040806323
48	0x3d6c7b47	0.057734754
49	0xbd9ef509	-0.077615805
50	0x3d177f15	0.03698643
51	0xbc773cc6	-0.015090173
52	0xbc8cb0db	-0.017174175
53	0xbd807e1c	-0.062740535
54	0x3d006593	0.03134687
55	0x3d9a3f28	0.07531577
56	0xbd3c1145	-0.045914907
57	0xbd37836d	-0.04480307
58	0x3d0c13d2	0.03419859
59	0xbc2a221b	-0.010384108
60	0xbd607e72	-0.054808088
61	0x3c5d1273	0.013493168
62	0xbd9b155b	-0.075724326
63	0xbd06ffc4	-0.03295876
64	0x3cccf5e5	0.025019595
65	0xbd59887e	-0.053108685
66	0x3d6ec505	0.05829336
67	0x3d1d9131	0.038468543
68	0x3cd150f3	0.025551295
69	0xbcb7f46b	-0.022455415
70	0xbd015b3d	-0.031581152
71	0xbd83322d	-0.06406055
72	0xbc02a82b	-0.007974665
73	0xbbd71bc9	-0.0065645915
74	0xbd0ce8cc	-0.0344017
75	0xbd8afe17	-0.06786745
76	0x3b37b1e8	0.0028029624
77	0xbd72bc1d	-0.05926143
78	0xbd261a2f	-0.040552314
79	0xbbd47bc7	-0.006484482
80	0x3d53aee4	0.05168046
81	0xbd73e39e	-0.059543245
82	0xbdb05945	-0.08610777
83	0xbdb1b8f9	-0.08677859
84	0x3d81ca8d	0.063374616
85	0xbce966df	-0.028491436
86	0xbcaed48e	-0.021341588
87	0xbcac8c02	-0.021062855
88	0xbd4e3399	-0.050342176
89	0x3d82daeb	0.063894115
90	0xbc0eb1e7	-0.008709407
91	0x3cae8028	0.021301344
92	0x3d6632f3	0.056200933
93	0xbcdb5444	-0.02677358
94	0x3d0359ad	0.032067943
95	0xbdbb8842	-0.091568485
96	0xbd0816f2	-0.033225007
97	0x3d0eb79f	0.034843083
98	0x3d3dc2c1	0.04632831
99	0x3d97de80	0.074154854
100	0xbc04e675	-0.008111586
101	0x3d9721ec	0.07379517
102	0xbd7f53a8	-0.06233564
103	0x3d55237b	0.05203579
104	0xbd9d7398	-0.076880634
105	0x3be6ad06	0.007039669
106	0x3cd91b1f	0.02650219
107	0xbd8bee34	-0.06832543
108	0xbd31a32e	-0.04336851
109	0xbdb1e536	-0.08686297
110	0x3c6e8fc2	0.014560642
111	0xbc6f08a3	-0.0145894615
112	0x3c4902ae	0.012268705
113	0xbdaf16c4	-0.08549264
114	0xbd36375d	-0.044486392
115	0xbd8b1e29	-0.06792862
116	0xbd18eac2	-0.037333257
117	0x3d906bde	0.07051824
118	0x3cab3966	0.020901393
119	0xbd5ccf82	-0.053908832
120	0x3d8ac660	0.06776118
121	0xbce25e9d	-0.027633006
122	0xbd30fee3	-0.04321183
123	0xbd943e7f	-0.07238483
124	0x3d478c3c	0.048717722
125	0xbd7a9d22	-0.06118501
126	0xbda6da51	-0.08147109
127	0x3c500fbd	0.012699065
128	0xbacb220c	-0.0015497818
129	0x3d0d6e12	0.0345288
130	0xbdb0fd6a	-0.08642085
131	0x3d9384d3	0.072030686
132	0x3da5f8dc	0.08104107
133	0x3d6f53dd	0.058429588
134	0xbd934b53	-0.07192101
135	0xbdaad405	-0.08341221
136	0xbcb26639	-0.02177726
137	0xbd95492d	-0.07289348
138	0xbc67871c	-0.014131334
139	0xbd9618b8	-0.073289335
140	0xbc2b5c17	-0.010458968
141	0x3db578c2	0.08860923
142	0xbd89ba27	-0.06724959
143	0xbb1dcee2	-0.002407961
144	0x3bf22ad8	0.0073903613
145	0xbcad1dab	-0.02113231
146	0x3d5ee830	0.05442065
147	0xbd971cca	-0.07378538
148	0xbd2245b3	-0.03961725
149	0x3c0f209a	0.0087358
150	0xbd19ce54	-0.037550285
151	0x3d19a9b5	0.03751536
152	0xbd0b7ff2	-0.034057565
153	0x3d91ae78	0.071133554
154	0x3c9272ac	0.017876945
155	0x3d9d7c49	0.07689721
156	0xbc67e192	-0.014152901
157	0x3d8a1fd9	0.06744356
158	0x3d10c321	0.03534234
159	0x3d860319	0.065435596
160	0xbca66106	-0.020309936
161	0xbd57d97c	-0.052697644
162	0x3d23a990	0.03995663
163	0x3c0e92f5	0.0087020295
164	0x3c8739a1	0.016506972
165	0xbc4f4c6a	-0.012652496
166	0xbda09ae6	-0.078420445
167	0x3da88dbc	0.08230159
168	0x3c4125b9	0.011788779
169	0x3d1ba503	0.037999164
170	0x3d353df5	0.04424854
171	0x3d86f646	0.06589942
172	0x3d84ad11	0.06478322
173	0xbc500fb0	-0.012699053
174	0x3d961c14	0.07329574
175	0x3c8cdaa5	0.017194102
176	0x3ca70c94	0.02039174
177	0x3d2204e1	0.039555434
178	0xbd9cb6ba	-0.0765204
179	0x3d808ffb	0.06277462
180	0xbbacb78c	-0.005270904
181	0x3d9a9222	0.07547404
182	0xbd927ee6	-0.0715311
183	0xbd030e90	-0.03199631
184	0x3daeb400	0.08530426
185	0x3c328cf5	0.010897865
186	0x3d5b18f0	0.05349058
187	0x3d2ff5e6	0.042959116
188	0xbd573732	-0.052542873
189	0xbc7e3610	-0.015515819
190	0x3d19a7e1	0.037513617
191	0x3db10bfc	0.08644864
192	0x3d517c8d	0.05114417
193	0xbd821e37	-0.06353419
194	0x3d027c18	0.031856626
195	0x3d212c36	0.039348803
196	0xbc6ce492	-0.014458792
197	0xbd052506	-0.03250601
198	0x3ca2ffbd	0.019897336
199	0xbd4304c2	-0.04761196
200	0x3be1eead	0.0068949074
201	0x3dae25c5	0.08503298
202	0x3d9a30ff	0.075288765
203	0xbcde1388	-0.027108923
204	0x3db37411	0.08762372
205	0xbc423d84	-0.011855487
206	0x3dc0ead2	0.094197884
207	0x3afe31fa	0.0019393556
208	0x3d45db84	0.04830505
209	0x3c8834eb	0.016626796
210	0xbd36b18b	-0.044602912
211	0x3d891a19	0.06694431
212	0x3d70dc21	0.05880368
213	0xbd8fddb7	-0.070247106
214	0x38950293	7.105353e-05
215	0x3db0b6da	0.08628626
216	0xbd83fa38	-0.0644421
217	0xbd04d1d1	-0.03242666
218	0x3c1814ce	0.009282304
219	0xbbb1e2d5	-0.005428652
220	0x3cbe5ea3	0.023238486
221	0x3a9c1aff	0.0011909901
222	0xbd9bba7d	-0.07603929
223	0xbd072fbf	-0.03300452
224	0xbd4703ca	-0.048587598
225	0x3d712a79	0.058878396
226	0x3d2458f4	0.040123895
227	0x3c3d38df	0.011549204
228	0x3d46770c	0.048453376
229	0xbd2e751b	-0.04259215
230	0xbc624ded	-0.013812524
231	0x3a9cab79	0.0011952958
232	0x3d870508	0.065927565
233	0x3db7a7d8	0.089675605
234	0xbd18e051	-0.0373233
235	0x3d6e37b9	0.05815861
236	0xbda50314	-0.08057228
237	0xbd581001	-0.052749638
238	0xbcb8c1e4	-0.022553392
239	0x3c520de7	0.012820697
240	0x3d9c39f0	0.07628238
241	0xbd629309	-0.055316005
242	0x3c3ed07a	0.011646384
243	0xbd523b0e	-0.05132585
244	0x3d5ff224	0.054674283
245	0x3b1f5baf	0.0024316122
246	0xbbc14eec	-0.005899301
247	0x3c5aea42	0.0133615155
248	0x3c49f4b3	0.012326407
249	0x3d6952ca	0.05696372
250	0x3c87b56b	0.016565999
251	0xbda2dcc7	-0.07952266
252	0xbd550e46	-0.052015565
253	0xbdabe983	-0.08394148
254	0x3db08ebd	0.08620975
255	0xbda8ac04	-0.082359344

l2.bias f4 [128]
0	0x3d84edba	0.06490655
1	0xbd12026b	-0.035646837
2	0xbbefa44e	-0.007313288
3	0x3cb36fe3	0.021903938
4	0xbd13efd0	-0.036117375
5	0xba4843ca	-0.0007639496
6	0x3d22ccb5	0.039746005
7	0x3d88763a	0.06663175
8	0xbcfa26b0	-0.030536026
9	0xbd452238	-0.048128337
10	0xbdaa1896	-0.08305471
11	0xbd421d5d	-0.047391284
12	0xbdca1dec	-0.098689884
13	0x3d7579f2	0.05993075
14	0xbce08b3c	-0.027410142
15	0xbc82b559	-0.015955614
16	0x3d7fe480	0.062473774
17	0xbd3c0f49	-0.045913015
18	0x3d9958db	0.07487651
19	0xbd5a69f6	-0.05332371
20	0x3c30f2ef	0.010800107
21	0x3da9b9d4	0.08287397
22	0xbd55d71e	-0.052207105
23	0xbd96e76d	-0.0736836
24	0x3cb3fb98	0.021970555
25	0x3d4aad70	0.04948181
26	0xbc53113c	-0.012882527
27	0x3d99f4fc	0.0751743
28	0xbd055b01	-0.03255749
29	0xbd98a92a	-0.074541405
30	0x3d791943	0.060815107
31	0x3b025875	0.001988915
32	0x3ccfb267	0.025353624
33	0xbccf33cc	-0.025293253
34	0x3cbdce40	0.023169637
35	0x3c13ed62	0.009028764
36	0x3c8949b1	0.016758772
37	0x3d882494	0.06647602
38	0x3d932403	0.07184603
39	0xbbb0f4ab	-0.0054002604
40	0x3ca528e1	0.020161094
41	0x3d98085d	0.0742347
42	0xbd491d7b	-0.04910038
43	0x3d4d5a06	0.05013468
44	0xbd482aa7	-0.0488688
45	0xbd5f4f6f	-0.054519113
46	0x3da194e7	0.07889729
47	0x3db10ae5	0.08644656
48	0xbc9f6374	-0.019456603
49	0xbc119376	-0.008885255
50	0x3d055071	0.032547418
51	0xbc94197f	-0.018078564
52	0xbd985e94	-0.07439914
53	0xbc553a81	-0.013014437
54	0xbd82c39a	-0.06384964
55	0x3d0c678c	0.034278437
56	0x3d070784	0.03296615
57	0xbd92fc17	-0.071769886
58	0xbd41b93d	-0.047295798
59	0x3d816d7d	0.06319711
60	0x3cb0e007	0.0215912
61	0x3d8b2a24	0.06795147
62	0xbdb2f69f	-0.087384455
63	0xbd501f6b	-0.050811213
64	0xbd3d181a	-0.046165563
65	0x3da4e205	0.08050922
66	0x3d0d5e9a	0.034514047
67	0xbda8f299	-0.08249397
68	0xbcc8dd2e	-0.02451953
69	0xbd7d1ba9	-0.061793957
70	0xbd92d627	-0.071697526
71	0x3d04105b	0.03224216
72	0xbd603f2b	-0.05474774
73	0x3d4c36b6	0.049856864
74	0x3d855519	0.06510372
75	0x3d9944fe	0.07483862
76	0x3d2e9171	0.042619172
77	0xbd4d187a	-0.05007217
78	0xbadeb8a7	-0.0016992287
79	0xbd933183	-0.07187178
80	0x3c97b985	0.01852108
81	0x3b93dc4d	0.004512346
82	0xbd68b642	-0.05681444
83	0xbda534d4	-0.08066717
84	0x3d9fc67d	0.078015305
85	0x3d53c4e8	0.051701456
86	0x3d0e234b	0.034701627
87	0x3d7a5184	0.061112896
88	0x3d12275a	0.03568206
89	0xbd8b5278	-0.06802839
90	0x3d89a0fc	0.067201585
91	0x3dae3126	0.08505468
92	0xbb05955a	-0.002038321
93	0xbda8d296	-0.08243291
94	0xbd2e9dc3	-0.042630922
95	0xbd5d7840	-0.054069757
96	0xbd407720	-0.046988606
97	0xbc0866af	-0.008325263
98	0xbb40a359	-0.0029394238
99	0xbd670493	-0.056400847
100	0x3cbf642f	0.023363201
101	0x3cc359bc	0.0238465
102	0x3c987253	0.018609202
103	0xbd536c77	-0.051617112
104	0xbd3bf32b	-0.0458862
105	0xbc76fd31	-0.015075014
106	0xbd9a6027	-0.07537871
107	0xbdb7f0b6	-0.08981459
108	0x3d915ca4	0.07097748
109	0x3d1ae0a7	0.0378119
110	0xbd8913f6	-0.0669326
111	0xbd865b8c	-0.0656043
112	0x3d00fedb	0.03149305
113	0x3d45edc0	0.04832244
114	0x3d13f268	0.03611985
115	0x3c526c98	0.012843274
116	0xbd3df0f2	-0.04637236
117	0xbd930ed5	-0.07180563
118	0x3d10fd03	0.03539754
119	0xbd809ea8	-0.06280261
120	0x3d95cc3a	0.07314344
121	0x3d95223b	0.072819196
122	0x3cd3b191	0.025841506
123	0xbd6fc747	-0.058539655
124	0x3d95ae0d	0.07308588
125	0x3d9e29eb	0.07722839
126	0x3ce49d65	0.027907083
127	0xbd977b89	-0.07396609

l3.weight f4 [5, 128]
0	0x3d69f1a2	0.057115205
1	0xbdb276fb	-0.087141
2	0xbd8e0e3f	-0.06936311
3	0xbd0965f0	-0.03354448
4	0x3d594363	0.05304278
5	0xbd73db07	-0.059535053
6	0xbca3d9b9	-0.02000128
7	0x3d86ade0	0.06576133
8	0xbbab96e8	-0.0052364953
9	0x3bed384d	0.0072393776
10	0x3d3bd1a7	0.045854237
11	0xbd452a6d	-0.048136164
12	0x3d84b5d1	0.06479991
13	0x3cb0cc26	0.02158172
14	0xbc4cffa8	-0.012512125
15	0x3b63cc7c	0.0034759333
16	0x3bd73a79	0.00656825
17	0x3d34edff	0.044172283
18	0x3d72966b	0.05922548
19	0xbd97788c	-0.07396039
20	0x3ccd6539	0.02507268
21	0xbce2dca0	-0.027693093
22	0x3c7ff82b	0.015623133
23	0xbccb2af5	-0.024800757
24	0xbd929fae	-0.07159363
25	0x3d95129b	0.07278939
26	0xbd32e7ed	-0.043678213
27	0x3c279a49	0.010229656
28	0x3d612b3e	0.05497288
29	0x3d6e6cea	0.058209337
30	0xbd850d43	-0.0649667
31	0xbce4d367	-0.027932836
32	0xbd2b20f1	-0.041779462
33	0xbd1906fb	-0.037360173
34	0x3b8da9c5	0.0043232166
35	0xbda264be	-0.07929371
36	0x3cea1bfb	0.028577795
37	0xbc6898bc	-0.014196571
38	0x3d5e89b2	0.054330535
39	0xbcf4948b	-0.029855987
40	0x3cec1ce5	0.028822372
41	0xbcce6fe4	-0.025199838
42	0xbcb19594	-0.02167777
43	0x3b851bd7	0.0040621567
44	0xbdbcc517	-0.092172794
45	0xbd398f4b	-0.04530267
46	0xbd64f823	-0.055900704
47	0xbd5ef1ac	-0.054429695
48	0xbd4ce63a	-0.05002425
49	0xbd007793	-0.031364035
50	0xbcfc5dea	-0.0308065
51	0xbd5013e9	-0.050800238
52	0xbd6cf738	-0.057852954
53	0x3d9c09b4	0.07619038
54	0x3d5abd66	0.05340328
55	0xbb1fc5c6	-0.0024379357
56	0xbdaf8814	-0.08570877
57	0x3d94e79f	0.07270741
58	0xbd896d6d	-0.067103244
59	0x3da18796	0.07887189
60	0x3d83075b	0.06397887
61	0x3ccb823c	0.024842374
62	0x3d774349	0.060366903
63	0x3d1d216c	0.03836195
64	0xbd5068fe	-0.05088138
65	0xbc1f3afe	-0.009718655
66	0xbc4a446e	-0.0123454165
67	0xbdb18b8a	-0.08669193
68	0x3c92a455	0.017900625
69	0xbda5dcee	-0.080987796
70	0x3d93872d	0.07203517
71	0x3d26e867	0.04074898
72	0x3d5133f2	0.05107493
73	0xb9ecc1dc	-0.00045157864
74	0xbdc44769	-0.09583933
75	0x3cc754d2	0.024332438
76	0xbd4b9ce2	-0.049710162
77	0xbaabaabb	-0.0013097146
78	0xbdbdb650	-0.09263289
79	0xbd1e15c5	-0.03859498
80	0xbceecce4	-0.029150434
81	0xbd3f17b8	-0.04665348
82	0x3d107ee5	0.035277266
83	0x3da54e0d	0.08071528
84	0xbd103255	-0.03520425
85	0xbb898944	-0.0041972715
86	0x3cd489f4	0.025944687
87	0xbd816dfd	-0.06319807
88	0xbdc2bc20	-0.09508538
89	0xbcd934d6	-0.026514452
90	0x3d015da8	0.03158346
91	0x3c06fbc9	0.008238741
92	0xbbafccf9	-0.005365011
93	0x3d21fb8b	0.03954653
94	0xbd9ce8ec	-0.07661614
95	0xbd77ca19	-0.06049547
96	0xbc853b9e	-0.01626378
97	0x3ac5a746	0.0015079759
98	0x3c69876e	0.01425348
99	0xbd9dfab9	-0.07713837
100	0x3d74f310	0.059802115
101	0x3d9c081f	0.076187365
102	0xbb20024d	-0.0024415434
103	0xba41880f	-0.000738264
104	0xba380b5d	-0.0007020736
105	0x3da7a3c0	0.0818553
106	0x3d83af64	0.064299375
107	0x3d369527	0.044575837
108	0x3d6e171f	0.05812752
109	0xbcbe33b9	-0.023218023
110	0xbd2a1e5a	-0.04153285
111	0x3d31f1e7	0.043443587
112	0xbd433830	-0.047661006
113	0xbd897afb	-0.0671291
114	0xbc3fc75f	-0.011705249
115	0x3d7820bc	0.060578093
116	0xbd1b8fcc	-0.037978932
117	0x3aa790e9	0.0012784275
118	0xbdaff666	-0.08591919
119	0xbc5438dd	-0.01295301
120	0xbd66001b	-0.056152444
121	0xbdb9a6ab	-0.090649925
122	0x3d86cc90	0.06581986
123	0xbc8dc888	-0.017307535
124	0x3d372d52	0.044720955
125	0x3d6e6d95	0.058209974
126	0x3d53636d	0.05160849
127	0xbcfc84fe	-0.030825134
128	0xbd4a291d	-0.049355615
129	0xbcb90929	-0.022587376
130	0x3d8aaa2d	0.0677074
131	0x3d3006b3	0.04297514
132	0x3ce64f1f	0.0281139
133	0xbd7c5d95	-0.061612684
134	0x3db7e6d6	0.08979575
135	0xbdab8b4b	-0.083761774
136	0xbb5e51bd	-0.0033923232
137	0x3d5c6069	0.05380288
138	0xbd5c6f70	-0.053817213
139	0xbd9e35d0	-0.07725108
140	0xbd44910f	-0.0479899
141	0x3da24e09	0.0792504
142	0x3d083884	0.033257023
143	0x3d0b3319	0.033984277
144	0xbd30fe0e	-0.043211035
145	0xbdb20b7f	-0.08693599
146	0x3db85022	0.08999659
147	0x3d16ee23	0.0368482
148	0xbc067ac7	-0.008207983
149	0xbc074250	-0.008255556
150	0x3d54c757	0.051947918
151	0xbd897dd7	-0.06713455
152	0x3d7b9474	0.061420873
153	0xbda24061	-0.079224356
154	0x3d9fadb7	0.07796805
155	0x3d81511b	0.06314298
156	0x3a238f57	0.0006239316
157	0x3d93c8f3	0.072160624
158	0xbb751a48	-0.0037399698
159	0x3d8acafe	0.06776999
160	0x3d788331	0.06067199
161	0xbd737618	-0.059438795
162	0xbc350942	-0.0110495705
163	0xbcfa3e4b	-0.030547282
164	0xbd8456e8	-0.064618886
165	0x3c4e228a	0.012581477
166	0xbcd618dd	-0.026134903
167	0x39efecff	0.00045762208
168	0xbcd877eb	-0.026424369
169	0xbdafc964	-0.08583334
170	0xbd8041bb	-0.06262537
171	0x3da275af	0.079326026
172	0x3d154f75	0.03645273
173	0x3d7caca0	0.061688066
174	0xbd043562	-0.032277472
175	0xbd92b0a5	-0.071625985
176	0x3cd37597	0.025812907
177	0x3c900245	0.017579207
178	0x3dac626c	0.0841721
179	0x3bf06e6e	0.007337383
180	0xbd6bfa5c	-0.05761181
181	0xbd853261	-0.0650375
182	0xbd756684	-0.05991222
183	0xbcd9b3a1	-0.026574912
184	0xbd788be7	-0.060680296
185	0x3cad3dd0	0.021147639
186	0xbbb9cf1c	-0.0056704413
187	0x3cd37fef	0.02581784
188	0x3ce06d27	0.027395798
189	0xbbde6e47	-0.0067880484
190	0xbc859496	-0.016306203
191	0x3d38397d	0.0449767
192	0xbd74973c	-0.05971454
193	0xbd8bf226	-0.068332955
194	0xbcd8c39f	-0.026460467
195	0x3d671493	0.056416105
196	0x3b97a0af	0.0046273093
197	0xbc225c32	-0.009909676
198	0x3d8f1ba0	0.06987691
199	0xbc92b52c	-0.017908655
200	0x3c9a692c	0.018848978
201	0xbd872662	-0.06599118
202	0x3d2e16ef	0.04250234
203	0x3d239b87	0.039943244
204	0x3d98022e	0.07422291
205	0x3cb064e2	0.02153248
206	0x3d66d1f4	0.05635257
207	0x3c5adccb	0.013358305
208	0xbd62d602	-0.055379875
209	0x3d5d288d	0.05399375
210	0xbcf516f2	-0.029918168
211	0x3d42206f	0.047394212
212	0xbc1a2818	-0.009408973
213	0x3d680407	0.056644466
214	0xbcf67577	-0.030085308
215	0x3d5ee5df	0.05441844
216	0x3b24ac1d	0.0025127002
217	0x3da1d075	0.07901088
218	0x3d96d390	0.07364571
219	0x3ca69c42	0.020338181
220	0xb98cfa93	-0.00026889573
221	0xbd2c9260	-0.04213178
222	0xbda50060	-0.08056712
223	0xbdb05f05	-0.086118735
224	0xbd26f9e7	-0.04076567
225	0x3ba1b887	0.0049353275
226	0x3bd07657	0.0063617635
227	0x3da9617c	0.08270547
228	0x3b2c22dc	0.0026265895
229	0x3da48b68	0.08034402
230	0xbd9aec3b	-0.07564589
231	0x3cafc416	0.021455806
232	0x3c5cec2a	0.01348404
233	0x3d897beb	0.067130886
234	0xbc1ec278	-0.00968992
235	0x3cf57f89	0.02996804
236	0xbd27014c	-0.04077272
237	0xbd98acfe	-0.07454871
238	0xbccf2741	-0.025287272
239	0xbda9a680	-0.082837105
240	0xbd45dfbd	-0.048309077
241	0x3d3921be	0.045198195
242	0xbdabc591	-0.08387292
243	0xbd9e593c	-0.07731864
244	0xbd89c4e2	-0.067270055
245	0x3bf9089d	0.0075999037
246	0x3d90ad2e	0.070642814
247	0x3d5d4df2	0.054029413
248	0x3d4a6cab	0.04942004
249	0x3b758048	0.0037460495
250	0x3db4a2ba	0.088201
251	0x3b9f5c84	0.0048633236
252	0xb9dd4039	-0.00042200254
253	0xbd643821	-0.05571759
254	0xbc949568	-0.018137649
255	0xbdb7ef28	-0.08981162

l3.bias f4 [5]
0	0xbaf59c7b	-0.0018738651
1	0xbda28551	-0.07935584
2	0x3d73e9d0	0.059549153
3	0x3dbaa881	0.09114171
4	0xbcd9125d	-0.026498014
