dqn_sanitizer.pth (torch, 74372 bytes, 6 tensors)

weight f4 [128, 2]
000000 14 e5 18 3e d6 2e c1 be 15 c5 ae 3e 12 5f 10 3e
       0.14931136 -0.37731045 0.34134737 0.14098766
000010 20 85 e1 be 14 54 c1 bc 52 06 ec 3e 67 36 f1 3d
       -0.4404688 -0.023599662 0.46098572 0.117779545
000020 28 34 b6 be d1 5b 13 bf 9f dd f3 bc 61 8e c8 be
       -0.35586667 -0.57561976 -0.029768763 -0.39171126
000030 fa 54 58 3e b2 f6 2f bf 75 4a 13 3f 2c 9a 98 be
       0.21126166 -0.687358 0.5753549 -0.29805124
000040 6c 9d 52 bd ae 9c e9 be 8e c4 a0 bc ec f6 6e be
       -0.05141966 -0.4562735 -0.019624975 -0.2333638
000050 03 f6 c9 be 8b 0a 03 be 7c df d1 be f9 00 9e be
       -0.39445505 -0.1279699 -0.40990818 -0.30860117
000060 b6 59 ff be f5 d5 b6 bd 27 11 e5 bd 59 7c d4 3c
       -0.49873132 -0.08927528 -0.11184912 0.0259382
000070 d7 22 b5 3e 82 8d 23 3e 33 1a ce 3e cf e0 20 3f
       0.35378143 0.1597195 0.40254363 0.6284303
000080 ee 2a 06 bf 15 be 21 3f 8b e6 e6 3e 9b d9 b4 be
       -0.52409256 0.6318067 0.45097765 -0.3532227
000090 b1 01 04 3f e6 ed 21 3f 83 c8 3b bd 39 da 01 be
       0.5156508 0.6325363 -0.04584552 -0.12680902
0000a0 1f 91 b6 3e 16 57 09 3f b5 cf 37 3e 0d cf 32 bf
       0.35657594 0.5364851 0.17950328 -0.69847184
0000b0 16 81 9b be ba 7e cd 3e ab 65 12 bf c1 38 e6 3e
       -0.30371922 0.40135747 -0.57186383 0.44965175
0000c0 e1 52 08 bf 36 2e 0b be 8a 05 64 3c ea c7 9b 3e
       -0.53251463 -0.13591847 0.013917336 0.3042596
0000d0 06 b4 ab 3e 0c 4b 13 bf 59 9f 01 3f 20 2d 97 be
       0.33535784 -0.5753639 0.5063377 -0.29526615
0000e0 44 da f2 bc e3 62 26 3f 14 e5 af be de 0e 05 3e
       -0.029645093 0.6499464 -0.3435446 0.12993953
0000f0 23 fd d9 3e 34 8b ea be da 9a e4 3e a2 ce 7e 3c
       0.4257594 -0.4580933 0.44649392 0.015552195
000100 dc 05 b4 bd 6a 3a 89 be 4e b9 ce be 57 94 ed 3e
       -0.0879018 -0.2680238 -0.4037575 0.46402237
000110 fa c3 08 3f eb 7c 31 3f e9 ef cd 3e 8b 14 79 be
       0.53424037 0.69331235 0.402221 -0.24324243
000120 a8 69 e4 3e 1b c2 9c 3e c0 bc 2a 3f c2 f6 43 3d
       0.4461186 0.3061684 0.6669426 0.04784275
000130 29 8c 14 3f 34 15 c5 3d e0 e6 0a 3e d9 6b 04 3e
       0.5802637 0.09623185 0.13564634 0.12931766
000140 8f 94 b7 3e a6 a3 f7 be a9 3e 01 3f 32 cf 19 bf
       0.3585553 -0.4836704 0.50486237 -0.6008178
000150 3c ab 07 3f 5f 8b e1 bd d5 e1 39 3d 01 a4 95 bd
       0.5299566 -0.11012911 0.045381386 -0.07306672
000160 94 46 84 be d8 ec c8 3e da 23 8b be 3b 19 b4 3c
       -0.25835097 0.39243197 -0.2717579 0.021984687
000170 7b 4b 12 bf da 1e 82 3e 7b 2c d2 bd c8 e6 a5 3d
       -0.57146424 0.25414163 -0.1026239 0.08100659
000180 e9 e7 d3 3d 61 f2 4c bd 64 c4 19 bf 73 09 7e be
       0.10346968 -0.050035838 -0.60065293 -0.24808292
000190 ca b3 13 bf 0e 57 f0 3e 01 27 1d 3f 44 2a b5 be
       -0.5769621 0.46941417 0.6138764 -0.3538381
0001a0 52 52 18 bf 85 99 30 bf 7b 74 9a be 97 ec e7 3d
       -0.5950061 -0.6898425 -0.30166993 0.11324423
0001b0 19 76 fb be 0d e2 18 bf 3a eb 1b be 3e a5 a4 be
       -0.4911354 -0.59719926 -0.1522645 -0.3215732
0001c0 1c e5 09 3f 93 1b 23 bd f1 5c d8 3e 5f 49 39 be
       0.5386522 -0.03982122 0.4225841 -0.18094395
0001d0 56 92 15 3f 5b 4e 3b 3e 9b 0f e5 3e 62 53 2d bf
       0.58426416 0.18291609 0.4473847 -0.6770536
0001e0 47 a0 fc bd 19 87 fc 3e de 68 d1 3e e0 28 8f be
       -0.12335258 0.4932182 0.4090032 -0.27960873
0001f0 f8 b6 96 bd ff 66 9f 3e 90 c3 01 bf 24 95 30 bf
       -0.07359117 0.31133267 -0.5068903 -0.6897757
000200 4d a3 b6 bd 20 51 99 be 3d 1c ee 3e ce 7e 93 be
       -0.08917866 -0.29944706 0.4650592 -0.28807682
000210 d5 3f 25 3f 87 0b f7 3e e4 7d 1f be a2 12 12 3c
       0.64550525 0.48250982 -0.15575367 0.008915575
000220 9a e6 1b bf d8 5f fb bd dd c7 06 3f bc 89 e3 3e
       -0.60898745 -0.1227414 0.5264872 0.4444102
000230 d2 d9 a4 be 9f b8 29 3f 17 d1 b8 bd e7 ad 98 be
       -0.32197434 0.66297334 -0.09024256 -0.29820177
000240 c8 eb e6 3e 48 34 13 bf 77 1b 10 bf 57 d7 09 3f
       0.45101762 -0.5750165 -0.5629191 0.5384421
000250 18 2b 30 3f 91 28 08 3d 8f 8c 55 3d aa c4 f2 bc
       0.68815756 0.033241812 0.052136 -0.029634792
000260 35 04 06 bf 08 e8 a2 be f6 d4 2e bf ff d6 51 3d
       -0.5235017 -0.3181765 -0.682937 0.051230427
000270 0a 6f fe be c3 cb ae be 3d 1f 01 bf 9f ea f1 3e
       -0.4969409 -0.34139833 -0.5043829 0.47249314
000280 ac d7 e9 be 13 d3 f4 3e 50 30 6e be 37 e3 0f bf
       -0.45672357 0.47817287 -0.23260617 -0.5620608
000290 b7 2e 46 3e 3b 8b f8 be 11 34 13 bf ea cd 9c be
       0.19353758 -0.48543724 -0.5750132 -0.3062585
0002a0 b0 33 07 3d 4b 52 12 bf 79 46 f1 be 39 d2 00 3d
       0.033008277 -0.5715682 -0.4712408 0.031450484
0002b0 58 06 1b 3f 8b 0f 88 be 08 b5 76 be d1 9a cd bd
       0.60556555 -0.26574358 -0.24092495 -0.100392945
0002c0 eb 63 8c 3e ea 2b c3 be 2b e6 e9 bd 12 34 c3 3d
       0.2741998 -0.3811944 -0.11420854 0.09531416
0002d0 13 bb 0c 3e ba 6b 28 3f 09 b8 0e bf d8 92 a0 be
       0.13743238 0.6578938 -0.55749565 -0.31362033
0002e0 a2 99 32 bf 4f 5a 07 bf f5 1e 10 bf ee 4f 45 be
       -0.69765675 -0.52872175 -0.56297237 -0.19268772
0002f0 9b 90 a9 3d 50 67 a7 be b9 d1 ba 3e 8d 33 b3 be
       0.082795344 -0.3269601 0.3648813 -0.35000268
000300 13 f0 2b 3f 12 f7 27 3f d6 c4 1d 3b 07 99 02 3f
       0.671632 0.65611374 0.0024073622 0.5101475
000310 e2 9e f7 be f9 dc 1a bf 57 f5 30 bf d3 47 da 3e
       -0.48363405 -0.6049343 -0.6912436 0.42632923
000320 1a 63 d7 3e 44 7d 9a bd 65 f0 cb be ca c1 fb 3e
       0.42067796 -0.07543424 -0.39831844 0.49171287
000330 a1 3e d1 3e 5a bf 84 be a2 43 f7 3e a6 1f c2 be
       0.40868095 -0.2592724 0.48293787 -0.3791477
000340 bc e2 03 3f d9 15 dc 3d 60 27 c8 be a0 d1 0c bf
       0.51517844 0.107463546 -0.3909254 -0.5500736
000350 a7 3d ba 3e db 60 22 3e b1 e6 59 3e 2e e1 a3 bd
       0.36375162 0.1585726 0.21279408 -0.08001934
000360 34 5e 65 3e b3 c1 6e be ed 81 2a bf e0 ba 30 bf
       0.22399217 -0.23316078 -0.666045 -0.6903515
000370 b5 a1 a2 bd 3a 8c b5 3e 0c 1a dc be a5 d1 a1 3e
       -0.079409994 0.35458547 -0.42988622 0.3160526
000380 b4 f1 55 3c 03 96 0a bf 06 b8 a5 3e 30 12 5a bd
       0.013058115 -0.5413515 0.3236696 -0.05324
000390 09 2f 20 3f 33 d7 18 bf db cf 2f bf f3 23 e8 bd
       0.6257177 -0.5970337 -0.6867654 -0.11334982
0003a0 43 30 2c 3f df ec 06 3f 12 39 bc 3b 1d ad 2f 3f
       0.6726114 0.52705187 0.005744108 0.68623525
0003b0 4b b1 a8 be b7 9a 18 bf 24 f2 c5 be 16 bd 25 bf
       -0.32947764 -0.59611076 -0.386613 -0.6474165
0003c0 6b 09 ef 3e ee 42 ca 3e 7e fa 0f 3f 03 9c 1d 3f
       0.46686873 0.39504188 0.56241596 0.6156618
0003d0 72 d4 9b 3d 1d fd 1a bf dd e9 6d bd 12 00 0b 3f
       0.0760888 -0.6054247 -0.058084358 0.5429698
0003e0 74 77 60 3e d2 cd d6 3d bd 6d 9d be d4 94 23 be
       0.21920568 0.10488476 -0.30747786 -0.15974742
0003f0 39 ec e7 3d 9e df 94 be 86 1e 30 3f dd 41 22 be
       0.11324353 -0.29076856 0.68796575 -0.15845437

bias f4 [128]
000000 51 67 9a be e2 eb 0c be 4b 41 a0 3d 5f 99 eb bd
       -0.3015695 -0.13761857 0.07824954 -0.115038626
000010 41 34 a1 be 3a 1d 26 3f 93 6f a0 be 6f c1 16 bf
       -0.3148518 0.64888346 -0.31335124 -0.58888906
000020 41 5d 1d 3f 0f 17 d9 3e 42 72 a8 3e 5e 0e 91 3e
       0.6147042 0.42400405 0.32899672 0.28331274
000030 32 07 9b 3e 28 e3 f1 bb b3 c7 a0 be 59 77 af 3e
       0.30278927 -0.0073818155 -0.31402358 0.34270743
000040 3a ed 3c be bf 59 f3 be c1 2b ec 3e 13 68 0a 3e
       -0.1844987 -0.47529408 0.46127132 0.13516264
000050 27 ed 4e 3d e6 76 25 bf a1 3e e1 be b2 17 0e be
       0.050519135 -0.6463455 -0.43993095 -0.13876227
000060 ec c4 1c 3e 23 94 16 be 46 cc 17 3f 9d 32 96 be
       0.15309495 -0.14704947 0.5929607 -0.2933549
000070 ac 2a 3f 3e c2 0d 20 3f 01 c6 5b 3d 5d ae 09 be
       0.18668622 0.6252099 0.053655628 -0.1344542
000080 22 a1 0f be 72 d3 22 3f 7c 8e 20 bf 75 14 30 3f
       -0.14026311 0.6360389 -0.62717414 0.68781215
000090 1e 27 0e 3f 06 a6 78 3d ca 5f 3b 3e c0 c7 97 be
       0.5552844 0.060705207 0.1829826 -0.29644585
0000a0 2d f7 00 bf 58 79 a2 be 56 29 f2 bb 58 5e 1d bf
       -0.5037716 -0.31733203 -0.0073901815 -0.6147208
0000b0 97 9a 2e 3f 27 a5 0c 3f 37 b9 ed 3e 46 97 e8 be
       0.68204635 0.549395 0.4643037 -0.45427912
0000c0 03 a9 b5 be 2d 63 c5 be a4 02 f2 3e 47 78 b0 be
       -0.35480508 -0.38552228 0.4726764 -0.34466764
0000d0 e8 f8 e0 be 4a fb 2a be 75 53 2d 3f 34 59 28 bf
       -0.439399 -0.16697422 0.6770547 -0.65761113
0000e0 ab 7b 12 be 82 be 21 3f 5a e9 9f 3e 5c 32 94 bd
       -0.14304988 0.63181317 0.3123272 -0.07236168
0000f0 49 77 b7 be 08 85 64 3e 40 db d7 bc 07 1e 28 3f
       -0.35833195 0.22316372 -0.026349664 0.6567082
000100 ed b3 14 3f 80 ef 14 bf 36 21 dd 3c 63 84 1d bf
       0.58087045 -0.5817795 0.026993375 -0.6153013
000110 0a 91 07 bf 12 fc 32 3f 73 d2 2c bf 42 9f 33 bf
       -0.5295569 0.6991588 -0.6750862 -0.70164883
000120 4b ec b5 be db 5b 2b 3f c8 2f a2 3e 47 f8 b4 3e
       -0.3553184 0.66937035 0.3167708 0.3534567
000130 66 45 e5 bc e1 bb 1c be b9 ad 68 be f7 3d 2e 3e
       -0.027987193 -0.15306045 -0.2272252 0.17015825
000140 0f ac 04 3d 26 95 02 3f f1 53 e4 be f0 ac c7 3e
       0.03239065 0.5100883 -0.44595292 0.38999128
000150 ec b6 64 3e 2a 0c 12 bf 22 87 04 3f fa fc 81 bd
       0.22335404 -0.5704981 0.51768696 -0.063470796
000160 71 62 23 3f ca e4 d6 3e d9 7e 28 bf ca 81 78 3e
       0.63822085 0.41971427 -0.65818554 0.2426826
000170 22 60 81 3e 5d 45 0c bf c1 86 4e 3d 34 88 2a bf
       0.25268656 -0.5479334 0.05042148 -0.6661408
000180 5a 05 a9 be 43 5b 20 be c2 f0 0b bf 01 68 01 3e
       -0.33011895 -0.15659814 -0.5466424 0.1263733
000190 92 83 d8 3e f8 47 20 bf c4 03 4b bc 00 60 05 be
       0.4228788 -0.62609816 -0.0123910345 -0.13024902
0001a0 de 4d 64 be c3 69 8d 3e 0b 87 f5 be cb 44 1b 3f
       -0.22295329 0.27619752 -0.47954592 0.60651845
0001b0 2e 85 48 bd cf 89 0f 3f 33 01 29 3e ee 81 54 3e
       -0.048955135 0.56069654 0.16504364 0.20752689
0001c0 86 94 64 3e 3b 86 16 bf 15 a3 f8 3e 01 f2 25 bd
       0.22322282 -0.5879857 0.48561922 -0.040513996
0001d0 3d 5f d2 be 9a 78 ab 3e 53 da cc 3e ae 8f 24 3f
       -0.41088286 0.3349045 0.40010318 0.6428174
0001e0 ca 15 a6 be d3 e1 0c 3f 0c d6 32 be e7 11 6c be
       -0.324385 0.5503208 -0.17464465 -0.23053704
0001f0 cc 81 7d bd bc fc 2c bf 26 18 ad 3e b8 22 05 bf
       -0.061891362 -0.6757314 0.33807486 -0.520061

weight f4 [128, 128]
000000 64 34 85 3c 09 cb 3c bd 1d 52 fb 3b 93 15 49 3d
       0.016260333 -0.046092067 0.007669701 0.04909284
000010 96 b2 ac bd 72 b4 f3 3c c0 4e 7b bd 9b 5f 7e bd
       -0.084325 0.029749129 -0.0613544 -0.062102895
000020 3f 86 19 3d f7 1f 1c 3d e4 e1 27 3d a0 82 91 bd
       0.037481543 0.03811642 0.04098691 -0.07104993
000030 b1 15 0d 3c 68 2a 9c bd de 2c 9b bd c4 3a 8a 3c
       0.008611129 -0.07625276 -0.07576917 0.016873725
000040 4b 5e ff 3c 6f bc 64 3d 86 64 95 3c 0f ba a0 bc
       0.031172892 0.055843767 0.01823641 -0.01961997
000050 ac 77 1f bd 3a 2c a8 ba 33 c9 aa 3d 7b d0 34 bd
       -0.038932487 -0.0012830563 0.08339157 -0.044144135
000060 7d 60 d7 3c 72 17 49 bd 65 0c 8c bd 32 dc 2f bd
       0.026291126 -0.049094625 -0.068383016 -0.042934604
000070 97 c3 70 3d f9 db b1 3c c2 7f a6 bb f3 c3 7c 3d
       0.05878028 0.021711336 -0.005081148 0.06171031
000080 8f 54 32 bd a4 3b 64 3d 79 28 a0 3c 4a ec 9b 3d
       -0.043537673 0.05572094 0.019550549 0.07613428
000090 1f 62 3e bc e8 eb 8b bb 6e cc 6f 3d 9b cd 48 3d
       -0.011620074 -0.0042700656 0.05854457 0.049024206
0000a0 ea 9d 02 3d 11 aa 1f 3b 1e 71 17 bd 16 00 30 bd
       0.03188888 0.0024362842 -0.03697311 -0.042968832
0000b0 12 41 aa 3d 8d 76 9c bb e9 ed c0 b9 dd c7 7a bd
       0.083131924 -0.0047748745 -0.0003679835 -0.06122576
0000c0 3b c5 5e 3d d6 77 86 bc 46 0a 8e bc dd 3d 95 3d
       0.054387312 -0.016414564 -0.017338883 0.0728719
0000d0 b7 c6 80 bd 0a 95 84 bd ad 5c ab bd 63 53 7e 3d
       -0.06287902 -0.064737394 -0.08367286 0.062091243
0000e0 00 96 d7 bb 62 8a a7 bd ac 9c 42 bd 4d 95 89 3c
       -0.0065791607 -0.08180691 -0.047512695 0.016794825
0000f0 1e 5b a2 3d c3 68 31 bd 1d 77 12 bd 58 77 1e bd
       0.079275355 -0.0433128 -0.035758127 -0.038688034
000100 be c8 3b 3d 8e 9c 2f 3d e5 17 10 3d d8 17 02 bd
       0.04584574 0.04287391 0.035179038 -0.03176102
000110 85 4e 82 3d c7 d6 8b 3c 24 52 d2 3c 38 1d a7 3d
       0.06362633 0.017070187 0.025673933 0.0815987
000120 30 28 03 3c af aa b2 3d c6 a0 8d 3d 57 f3 25 bd
       0.008005187 0.087239616 0.06915431 -0.04051527
000130 41 3b 80 bd 0b ee 7f 3d d3 d3 13 bb b5 43 b7 3c
       -0.06261302 0.062482875 -0.0022556677 0.022371152
000140 c9 81 10 3d 54 ca 7a 3d c5 b6 fa 3c dd 9d 89 bd
       0.035280023 0.06122811 0.03060473 -0.06719563
000150 99 4f 72 bc 9e fa 46 bd f2 78 8c 3c 1e 6c 18 3d
       -0.014789485 -0.04857885 0.017147515 0.037212484
000160 21 8c 8b 3d 09 5c 6f bc c3 55 b1 bd 63 09 93 3d
       0.06813837 -0.014609345 -0.08658936 0.07179525
000170 d2 44 83 3d 34 6c ae bb c8 ca a9 bc 56 33 9f 3d
       0.06409611 -0.0053229574 -0.020726576 0.077734634
000180 a2 84 8b 3d 65 18 af 3c 3e 37 6e 3d 3c 7c 54 bd
       0.06812407 0.021373937 0.05815815 -0.05187629
000190 3c ff 96 bc 8a 38 a3 bd 9d 6f a3 bc 2d fe 02 3c
       -0.018432252 -0.07969768 -0.019950682 0.007995171
0001a0 d7 1c 1b bc ea d4 86 bc 6a 13 bc 3c 61 3b 95 3d
       -0.009467325 -0.016458947 0.022958476 0.07286716
0001b0 f1 d9 5c 3d b8 4c 85 3d ab 3c 74 3d 12 7c d7 3c
       0.053918783 0.065087736 0.05962817 0.026304279
0001c0 3e e8 94 bd 57 3c 46 bd 67 95 43 bd f9 a0 3e bd
       -0.07270859 -0.04839739 -0.047749903 -0.046540234
0001d0 d3 04 04 3d d9 d5 aa 3d 17 60 b4 3d cd a0 48 3d
       0.032231163 0.083415695 0.0880739 0.048981477
0001e0 c5 52 fa bc 4b c1 25 bd 90 33 21 3d 0f 35 03 bc
       -0.030557046 -0.04046754 0.039355814 -0.008008256
0001f0 81 2a 99 3d ca 6e 4f bc 81 7c 50 3c b8 4a 40 bd
       0.0747881 -0.0126606915 0.012724997 -0.046946257
000200 07 bc 0d bd 95 7a 46 3d 35 be ed 3c 42 b7 a2 3d
       -0.034603145 0.048456747 0.029021362 0.0794511
000210 18 a2 0d 3c 57 80 85 3d 4f f6 08 bd fa 34 67 3d
       0.008644603 0.065186195 -0.033438023 0.056447007
000220 e1 57 6b 3c 22 7e ae bd 88 a1 80 bd 17 10 99 3d
       0.014364214 -0.08520152 -0.0628081 0.07473772
000230 7b a4 b4 bd 22 a0 74 3d 96 bd 6e 3b 14 b0 93 3d
       -0.08820435 0.059723027 0.003642892 0.072113186
000240 9c 2a 7f bd 3b 65 0a bd ec 2a b0 bd 4d 0c 4e bc
       -0.062296495 -0.033787947 -0.08601937 -0.012576175
000250 be f8 6d bb 0c 2c 92 bd d5 cf 2c 3d 60 9e d7 bc
       -0.0036311592 -0.071373075 0.04219039 -0.026320636
000260 1c 8e 6d 3d a6 b5 82 bc bf 64 93 3d f8 e9 87 3d
       0.057996854 -0.015955757 0.0719695 0.06636423
000270 01 14 4b bd ae 15 1d 3d 1b 0f 57 bc bc f3 40 3d
       -0.049579624 0.038350753 -0.01312616 0.047107443
000280 61 07 59 bd 75 20 95 3c 7d 18 78 bd c8 f9 1b 3d
       -0.052985553 0.018203953 -0.06057023 0.038080007
000290 21 61 ad 3c ae 43 90 3d ca 02 09 bd 3d fe a2 3d
       0.021164479 0.07044159 -0.033449925 0.07958648
0002a0 05 a5 a2 bc 59 07 ae 3d 03 24 4e 3a 12 51 51 bd
       -0.019854078 0.08497495 0.00078636425 -0.051102705
0002b0 a9 05 52 3d 74 f3 65 bc c1 5b f7 3c 5c 27 74 bd
       0.05127493 -0.0140350945 0.030195119 -0.05960785
0002c0 16 65 97 bd fe 15 77 3d 2d 34 80 3d 8f 5d 7e bd
       -0.073923275 0.060323708 0.06259952 -0.062100943
0002d0 fa 21 bf bc e8 57 ae 3d 43 a3 b3 3d ae 36 96 bd
       -0.023331631 0.085128605 0.08771374 -0.07334648
0002e0 bf 34 fa bc 9c 74 21 3d 7b 37 57 bd 7e a8 a9 bd
       -0.03054273 0.039417848 -0.052543145 -0.082840905
0002f0 c7 bc 8d 3d 8e 35 a8 3d d8 44 dc bc af a6 db bb
       0.06920772 0.0821334 -0.026888296 -0.00670322
000300 27 a9 27 bd c2 0b 42 bb 33 a2 d5 3c 14 35 26 bd
       -0.0409328 -0.002960906 0.02607832 -0.040577963
000310 19 11 a9 bc 77 b1 9b 3d 26 6a c8 bc ed 6a 84 bd
       -0.020638036 0.07602208 -0.024464678 -0.06465707
000320 6b 5a 4f 3c 55 eb 7e 3d 98 f3 f5 3c 3b 1e 00 3d
       0.012655835 0.06223615 0.030023381 0.03127883
000330 e0 3b 2a bd 73 58 d1 3c 32 78 0b 3d 0b f3 a2 bd
       -0.041561007 0.025554871 0.034050174 -0.07956513
000340 7a bc ed bb c7 c4 5e 3c 67 23 bf 3c 76 34 27 bd
       -0.007255134 0.01359672 0.02333231 -0.040821515
000350 e9 0c 98 bd 6b 29 99 bd 57 c9 a3 bc 5f b1 b1 bc
       -0.074243374 -0.07478603 -0.019993467 -0.021691022
000360 fc c6 a4 bc 95 52 2e bc 6b b5 99 3d 1d 73 5d 3d
       -0.020114414 -0.010639806 0.07505306 0.05406486
000370 4e be 17 3d 0c 5f 95 3d 62 cc 7e bd 6f d6 48 bd
       0.037046723 0.072935194 -0.062206633 -0.049032625
000380 68 cd ae bd 8c 6f b3 bd 7f 02 b3 bd 7f ba 18 bd
       -0.08535272 -0.0876151 -0.087407105 -0.03728723
000390 93 cb 92 bc 06 46 ae 3d 7a 74 35 bd 73 22 9c bc
       -0.017919337 0.0850945 -0.044300534 -0.019059395
0003a0 1e 9f 89 3d ba 27 0a bd e1 e5 d0 3c eb 46 f9 3b
       0.06719802 -0.033729292 0.02550024 0.007607331
0003b0 47 d8 e8 3c c2 e1 aa 3d b9 ab 56 3d 9d 15 9b 3d
       0.028423442 0.08343841 0.05240986 0.07572482
0003c0 94 c5 2e 3d 71 41 71 bd c3 8c 99 3c 77 a5 bd bc
       0.042668894 -0.0589003 0.018743878 -0.023150189
0003d0 cc d1 5b bd 6b 32 98 bd e5 96 b4 bd 49 0d 47 bd
       -0.053666875 -0.074314915 -0.08817843 -0.048596654
0003e0 20 a2 5c 3d 14 09 23 bd 2b c4 8e bd ef 9f 71 3d
       0.053865552 -0.03980358 -0.0697101 0.058990415
0003f0 33 ff 3e bd 65 a8 99 bc ba 65 3f 3b 13 40 ae 3d
       -0.046630096 -0.018757055 0.002920492 0.08508315

bias f4 [128]
000000 06 03 27 bc 40 7c 9f bd b8 89 bf bb 39 53 d6 3c
       -0.010193592 -0.07787371 -0.005845275 0.02616273
000010 fd c4 02 3b 6b c1 84 bd 19 9d c5 bc e4 6d 1a 3d
       0.001995384 -0.06482204 -0.024122762 0.037702456
000020 d3 14 9e 3c a8 dd 9f 3d 99 8c 8e 3a 63 8b 81 3c
       0.01929704 0.078059494 0.0010875642 0.015813535
000030 55 77 9f bd 1f 81 24 bd b2 07 e1 3c ef 7b 8f 3d
       -0.07786433 -0.040162202 0.02746949 0.0700606
000040 c7 b1 b2 bd 19 27 56 bd 00 4a 63 bd 32 f2 f8 3c
       -0.087253146 -0.05228338 -0.055490494 0.030388925
000050 1a c3 6d 3c 04 02 bb 3c a4 8d 3a 3d 3a 52 8a bd
       0.014511848 0.02282811 0.045545235 -0.06753965
000060 1e 5d 3a bd 3a 5a 9b 3d de bf 37 3d af a6 87 3d
       -0.04549896 0.07585569 0.044860713 0.06623589
000070 a9 05 71 3d 57 d4 8e bd a6 91 64 3c f2 26 1d 3d
       0.05884329 -0.06974094 0.013950741 0.03836722
000080 ee a2 95 3c 1f 46 1d bd 18 62 9c bc de bb a5 3d
       0.018266167 -0.03839695 -0.019089743 0.080924734
000090 48 26 a7 bc d8 54 f9 3c 7f 21 83 bd 7b 66 b1 3c
       -0.020403996 0.030435964 -0.06402873 0.021655312
0000a0 68 86 0d 3c be 5b 4e 3d ee 08 b2 3d 2d bc 9a bd
       0.008638002 0.05038046 0.086931095 -0.07555423
0000b0 73 ff af 3d 0d 65 66 bd 23 30 12 3d 3c b3 89 3d
       0.08593645 -0.056248713 0.035690438 0.06723639
0000c0 37 51 61 3d 26 37 61 3d 33 2a 8d 3c 77 42 b0 bd
       0.055009093 0.054984234 0.017232036 -0.08606427
0000d0 c9 26 32 bd 64 b9 91 bc 79 33 94 bd 90 86 65 3d
       -0.04349402 -0.017788596 -0.0723638 0.056036532
0000e0 01 ca 85 3c 61 7c 19 bd 55 d2 65 3d bd ed 64 3d
       0.016331675 -0.037472133 0.05610879 0.055890787
0000f0 31 08 3f 3d 56 d1 a5 3d 4c d4 1d bc 5d 57 b9 bc
       0.04663867 0.08096568 -0.009633135 -0.022624666
000100 f8 bf 10 3d 76 80 b2 3d 47 db 8c bc bf 1f 02 bd
       0.035339326 0.08715908 -0.017194403 -0.031768557
000110 c7 ba 38 bd 87 1f 1b 3c e9 5d 39 bd 2d 64 ab 3d
       -0.0451 0.009467966 -0.045255575 0.083687164
000120 d1 c9 af 3d 4c 1c 87 3d cd 98 10 bc 3a ae 26 3c
       0.08583415 0.06597194 -0.008825493 0.010173375
000130 84 c8 53 3d 5b 3e 8d bd 3d 1e 5b 3d c7 62 a0 3c
       0.0517049 -0.06896659 0.053495634 0.01957835
000140 a2 65 92 bd 0e 0e 5e 3d cc 19 d2 3b 10 0b 8a 3c
       -0.07148291 0.054212622 0.0064117666 0.016850978
000150 1c d5 2e bd f6 d2 cd 3c 7e 00 b6 bc c7 45 1c 3d
       -0.042683706 0.025125008 -0.022217032 0.038152482
000160 20 37 3a 3d ea ee 4e 3d 33 67 8e 3c 2f 7a 1a bc
       0.045462728 0.050520815 0.017383194 -0.009428545
000170 52 83 9b 3c 64 3a 01 bd 30 b2 27 bd a3 40 2c bc
       0.018983517 -0.031549826 -0.040941417 -0.0105134575
000180 26 27 71 bd 40 47 84 bd 76 77 35 3d 6b e9 d8 bc
       -0.058875225 -0.06458902 0.04430338 -0.02647849
000190 8a 3e 6e bc 80 dc 2d bd 9f 98 43 3d 3e 00 88 bd
       -0.014541278 -0.042446613 0.047752973 -0.06640671
0001a0 1e 41 82 bd 76 ee c6 bc cf 03 4c 3c d7 b3 38 bd
       -0.06360076 -0.024283629 0.01245208 -0.045093384
0001b0 cf 19 ac bd 3c 40 a4 bd ee 43 fd bc 80 f9 fa 3c
       -0.0840336 -0.08020064 -0.03091618 0.030636549
0001c0 2d 79 6f 3d 5d 55 19 3d 49 59 71 bd 40 d1 6c 3d
       0.05846517 0.037434924 -0.05892304 0.057816744
0001d0 79 88 98 3c d9 db af bd 27 cd b8 3c 10 9a 85 3b
       0.018619763 -0.085868545 0.022558762 0.0040772036
0001e0 7b ba 21 bd b3 bb 21 3c b1 4b 83 bc ae 33 4a bd
       -0.039484482 0.009871411 -0.016027303 -0.04936569
0001f0 ef aa 7e 3d 0e f7 bc bc 81 35 b0 bd 7d 7a 9c bd
       0.062174734 -0.023067024 -0.08603955 -0.0764055

weight f4 [5, 128]
000000 e5 57 84 bd 4d b1 22 bd b5 41 b0 3d de a9 80 3d
       -0.06462077 -0.03971987 0.086062826 0.062823996
000010 b9 ff 95 bd f0 2e 9e 3d 03 e8 44 3d 7f 4d a8 3d
       -0.07324166 0.07723796 0.048072826 0.08217906
000020 3e 46 96 bc 5d 01 80 bc f0 f0 a9 bc 3a c9 80 bd
       -0.018344041 -0.01562565 -0.02074477 -0.06288381
000030 16 ac de 3c 30 23 91 bd db 23 9b 3d 8e 0d 72 bc
       0.027181666 -0.070867896 0.07575198 -0.0147737395
000040 40 6a e8 3c 03 83 be 3c 66 d6 a4 bd cc 13 38 bd
       0.028370976 0.02325583 -0.08048706 -0.044940755
000050 8e 35 80 bd 20 7e ad 3d 0f 92 a6 bd 1b 70 9d bd
       -0.06260215 0.08471322 -0.08133327 -0.07687398
000060 71 a5 5d 3a 0c af 88 bd a1 d7 1f bd 7c 83 aa 3d
       0.00084551336 -0.066740125 -0.039024 0.0832586
000070 f0 4d 3f 3d 61 ee d1 bc 37 05 4b 3d 1a a0 6e 3d
       0.046705186 -0.025626363 0.04956552 0.058258153
000080 3f 66 75 bd 59 4b 80 bd 12 0c 9d 3d 40 c2 09 bd
       -0.059911963 -0.062643714 0.07668318 -0.033632517
000090 27 0b 89 3d 89 ed 91 3d 4e 65 27 bc f2 64 af bd
       0.0669158 0.07125384 -0.010217024 -0.08564176
0000a0 b6 ed 05 3d b4 c6 32 bc fc 9a 85 3b e4 63 02 3d
       0.032697402 -0.010911632 0.0040773135 0.031833544
0000b0 19 3e fe 3c e8 bc bc bc ef 3f bf bc 22 27 80 bd
       0.03103547 -0.023039296 -0.023345916 -0.06257464
0000c0 77 53 e8 3a ba e7 a3 3d 9f 54 75 bd 66 f7 85 bd
       0.001772507 0.08003183 -0.059895154 -0.06541328
0000d0 ea da 83 bd 1c 42 85 bd 96 a0 b8 bc 97 43 fc 3c
       -0.06438239 -0.0650675 -0.02253751 0.030793948
0000e0 2f 23 37 3d 6b 17 1a 3d 4e 9f a5 bd 3f 7e 9c bc
       0.044711288 0.03761999 -0.080870256 -0.019103168
0000f0 12 ef aa bd ca c1 9f 3c 9d f2 0d 3d d0 2f 45 3d
       -0.0834638 0.019501586 0.034655202 0.0481413
000100 e7 02 b0 bb 5e 80 23 3c 39 09 86 3d 12 aa b5 bd
       -0.0053714397 0.009979336 0.06544728 -0.08870329
000110 0e 9d 9f bd ce 36 8a bd 57 f7 10 3c 4a 0c 26 bb
       -0.07793628 -0.067487344 0.008848033 -0.0025336915
000120 15 1e b3 bd 8e d8 9a 3c 0b 37 92 3c 7c 59 db bc
       -0.08745972 0.01890209 0.017848512 -0.026776068
000130 76 0c af 3d 85 0c 8c bd 3e 6e 87 3d 4c b9 fe bc
       0.085472986 -0.068383254 0.06612824 -0.031094216
000140 68 7e 9f 3d 83 91 90 bd 44 ae 1a 3c 3c 79 3b bc
       0.07787782 -0.07059004 0.009440962 -0.011442479
000150 37 d3 69 bd 86 0e 3f 3d 6a 44 a9 3d 5f 47 54 3c
       -0.057086196 0.04664471 0.08265002 0.012956469
000160 7f cc 6c bd 0d 6c 10 3c 95 c1 4d bd 10 e4 28 bd
       -0.05781221 0.008814824 -0.050233442 -0.041233122
000170 85 3a a0 bd df db 1b 3d 35 de 21 3d f2 26 1f bd
       -0.07823662 0.038051482 0.039518554 -0.0388555
000180 f8 3d f9 3b 3b e0 10 3c b7 34 c0 bc 7b 2a 09 3d
       0.007606264 0.008842523 -0.023462636 0.03348778
000190 95 37 ff 3c 3a a3 a1 3d 4c a1 38 bd 53 6a 48 3d
       0.031154433 0.07892461 -0.0450757 0.048929524
0001a0 bf fe 8c 3d df 3f 83 3c 1c d5 77 3d 5e 48 e8 3c
       0.068845265 0.016021667 0.06050597 0.02835482
0001b0 9e 1e 4a bd 7c 96 a0 bd 4d 0c 64 bd ab c9 a7 3d
       -0.049345605 -0.078412026 -0.055675793 0.08192762
0001c0 40 d4 57 bd 3f 3c 9f 3a 18 b2 e7 3b f7 1a 1c bd
       -0.05269265 0.0012148692 0.007070791 -0.038111653
0001d0 f8 e0 76 bd e9 f5 92 3d 4f 67 47 3d 27 74 3e 3d
       -0.06027314 0.0717581 0.048682507 0.04649749
0001e0 7b f9 99 bd de f9 25 3c 09 00 31 3d 05 bb d5 bb
       -0.07518288 0.010130374 0.043212924 -0.0065225386
0001f0 6e 00 94 3d a0 37 a7 bd 5f 23 76 3c 94 51 8f 3d
       0.072266445 -0.081649065 0.015023082 0.06997982
000200 73 8e a0 bd fe c5 11 bb 71 8c b2 bd e3 e7 ea 3c
       -0.0783967 -0.0022243257 -0.08718193 0.028675025
000210 b1 0e 78 bd 28 da 69 3d fb ed c5 3c b1 0f a6 3d
       -0.060560886 0.057092816 0.02416133 0.08108462
000220 5d f0 22 bd b9 ee 0b bc 4f 9e 9b bd ff 6f f6 bc
       -0.03978001 -0.008540803 -0.07598554 -0.0300827
000230 3f 67 30 bd 2f f7 b3 3d 22 17 c1 3b 5c a6 a6 3c
       -0.043067213 0.08787381 0.00589265 0.020342998
000240 5c 84 98 bc 3c cc 8e bd 8c e8 3c 3d 31 f0 63 3d
       -0.018617801 -0.06972548 0.04612021 0.055648986
000250 5c 37 92 bd 82 c3 06 3d 3e 7d ab bd 73 94 56 bc
       -0.07139465 0.032901295 -0.083734974 -0.0130969165
000260 7e 40 4d 3d 68 36 0b bd 4f 88 41 bd c9 33 c9 3b
       0.050110333 -0.033987433 -0.047249135 0.0061402065
000270 c1 4b 08 ba df d8 73 3d e8 27 41 bd 9c 88 32 3c
       -0.00051992765 0.059532996 -0.0471572 0.010896828
000280 0a ee f4 bc 8d 0a 5b bc e2 e4 85 bd 09 19 a3 3c
       -0.029898662 -0.013369215 -0.065377966 0.019909399
000290 a4 7f 85 bd 83 f0 d8 3c 3a ee a8 3d d7 e7 1d bc
       -0.06518486 0.026481872 0.08248563 -0.009637794
0002a0 f3 29 9a bd da 42 1f 3c da 41 a3 3c dc 9f 60 3d
       -0.075275324 0.0097205285 0.019928861 0.054839954
0002b0 be 1f ed 3c 94 8a a8 bc d5 61 4d ba b1 04 71 bd
       0.0289458 -0.020573892 -0.00078347075 -0.058842365
0002c0 dd 20 02 3d 76 64 a8 bd ff f9 b3 bd e1 6e 85 3c
       0.031769622 -0.082222864 -0.08787917 0.016288223
0002d0 cf c3 9b 3b b3 70 d2 bb 2e 5c 65 bd 5d f1 4c 3d
       0.004753567 -0.006422126 -0.055996113 0.05003487
0002e0 34 95 fd bc 24 75 9c 3d b2 f9 47 3b 21 a1 62 3c
       -0.030954935 0.0763953 0.003051382 0.013832361
0002f0 b0 2e 8c 3c 4c 86 45 3d 79 c5 26 3d e3 09 6f 3a
       0.017112106 0.04822378 0.04071567 0.00091185997
000300 8e 98 ae bd 60 46 83 3c d4 01 56 bb aa 8a 31 3c
       -0.08525191 0.016024768 -0.0032654898 0.010836283
000310 f7 b4 83 bc df 78 ed 3c 6e 1a 9f bd 22 4e 9d bd
       -0.016077502 0.0289883 -0.07768713 -0.07680918
000320 fe e0 17 bd b9 a8 80 bd bd f1 ed 3c 15 93 12 3a
       -0.037079804 -0.06282181 0.029045934 0.0005591375
000330 22 97 aa bd da 71 16 3d 24 78 7b 3c 94 f6 a7 3b
       -0.083296075 0.03672967 0.015348468 0.00512583
000340 91 fb 1d bd 8f 57 78 3d bd 36 da bc f6 c8 a5 bd
       -0.03856999 0.060630377 -0.02663743 -0.08094971
000350 8b 40 24 3d fe e7 ae bb d2 af 24 bc 1a 88 7f bd
       0.040100615 -0.005337714 -0.010051684 -0.062385656
000360 e0 26 1b 3d e9 6b 88 bd c9 7f 33 bd 1c ff 45 bd
       0.03787887 -0.06661207 -0.043823037 -0.048338994
000370 0f c0 a3 3d c2 37 aa bd eb 92 88 bd b9 c0 ae bd
       0.07995617 -0.08311416 -0.066686474 -0.08532853
000380 eb 35 40 bd 5f 4b 68 3d 3c 4a dd bc f4 04 72 3d
       -0.04692642 0.056712504 -0.027012937 0.059086755
000390 d1 b2 82 bd 8a e6 b4 bd 43 16 87 bd cd 14 93 3d
       -0.06381763 -0.08833034 -0.06596043 0.07181702
0003a0 54 72 ad bc cd a0 8d 3c 1f f8 93 bd 51 fe 22 3d
       -0.02117268 0.01728859 -0.0722506 0.039793316
0003b0 91 b6 c9 bc 8a cb 7b bc e7 f9 93 bd 00 41 3c 3d
       -0.024623187 -0.015368352 -0.072253995 0.045960426
0003c0 3e d1 08 bc f3 7d f9 3c 98 23 20 3d d1 ab f1 3c
       -0.0083506685 0.030455565 0.039096445 0.029500874
0003d0 c6 3f 38 bd 72 31 b0 bc 55 17 af 3d 06 f9 11 bd
       -0.044982694 -0.021507952 0.08549372 -0.035637878
0003e0 76 cc 8f 3d 8a 80 47 3d bc f3 95 3d 3c c7 45 bd
       0.0702142 0.04870657 0.07321879 -0.048285708
0003f0 37 a2 42 bd 3a 18 c4 bc 4e 11 67 3d 60 0e 54 bc
       -0.04751798 -0.023937333 0.056412987 -0.01294288

bias f4 [5]
000000 84 58 ba 3b dc d1 3b bd be 80 3f 3d 43 56 72 3c
       0.0056868214 -0.045854434 0.046753637 0.014791074
000010 97 aa e8 3c
       0.028401656
