dqn_sanitizer.pth (torch, 72836 bytes, 6 tensors)

l1.weight f4 [128, 2]
0.15570715 0.2491713 -0.68516845 0.61724436 0.6221788 -0.20888503 -0.32951722 -0.6996398
-0.3011716 0.060775317 -0.5860393 -0.52944887 0.59201926 -0.64322686 0.52733237 -0.6690864
-0.52077585 0.6591487 0.48261085 0.09423445 -0.35586926 0.6758667 0.3746589 0.009610841
0.6901862 -0.5424054 -0.29945076 -0.35675967 -0.034577172 -0.68420583 0.54670113 0.3891355
0.37275836 0.14120443 -0.67414063 -0.5391325 -0.25374055 -0.47616893 -0.6921648 0.59511137
-0.61361927 -0.5011654 -0.44700247 0.41713294 -0.5209714 0.7041208 -0.44496092 0.04765424
0.5110917 -0.6624862 0.30323118 -0.70307744 -0.03156898 0.1735888 0.15929103 -0.51309294
-0.4307404 -0.52586734 0.6808553 0.4026047 0.45531347 0.04304868 0.6140959 0.28317243
0.6718131 0.25756052 0.39098784 0.16122147 0.6761307 -0.67804176 -0.48396605 0.080241464
-0.008675739 0.059042428 -0.45672333 0.04601992 -0.5395835 0.48552436 -0.4316261 -0.31982765
-0.4380031 -0.4837009 -0.43898097 0.45068216 0.31184268 0.26930448 -0.6369402 0.44220307
-0.68541867 -0.5268898 0.34626195 -0.45628992 0.25925717 0.6389704 -0.58715343 0.69818884
-0.04934912 -0.40825924 -0.30202395 0.30505598 0.33042437 0.21285382 0.3310093 -0.15983303
0.19220667 -0.51440895 -0.30883297 -0.26794413 0.6465253 -0.05590519 -0.19141592 0.13873674
-0.4920173 0.63028383 0.10272621 -0.22377911 0.26662907 -0.019074999 -0.625064 0.6036289
-0.19230504 0.43356496 -0.27241978 0.044391852 -0.06180475 0.47467875 0.21464032 -0.039428424
-0.295486 -0.6239365 -0.6473949 0.07377985 0.50736713 0.07069718 0.69702774 -0.2786115
0.62044245 0.5261157 0.12929735 -0.39080462 -0.35190386 -0.68428534 -0.40728372 0.54177755
0.43492797 -0.18479957 -0.13532718 -0.5585196 -0.38994104 -0.16710281 -0.23105295 0.14819252
0.43557972 -0.2853345 0.26159608 -0.59774256 -0.48219383 0.10978659 -0.5342199 -0.050622158
-0.18743558 0.15296127 0.07482375 -0.10376166 -0.61095613 0.68501997 0.637431 -0.18873598
-0.15949999 0.24714339 0.6011473 -0.32885233 -0.16383366 0.11656119 -0.6415894 0.585807
0.55431134 0.5841126 0.46771997 -0.2908942 -0.296228 0.12928504 -0.59306353 0.6643589
-0.6166523 0.40521377 -0.13033766 0.33288255 0.55358994 0.3807029 -0.0026842484 -0.49496457
0.011516919 -0.52935827 -0.26332942 0.34767416 0.26499006 0.2059482 0.596252 0.0035212105
-0.3780718 -0.28881297 0.59255004 -0.41021556 -0.063187815 -0.1176359 -0.20308281 -0.09718809
-0.12359499 0.04888232 0.47921017 0.119530395 0.5465961 0.33167094 -0.22982757 0.63352096
0.2192766 -0.6501608 0.03030624 -0.50380707 -0.034545075 0.12854117 -0.4772064 0.21077861
0.6964337 -0.67324084 0.6797412 0.51978916 -0.0092036985 0.52073663 -0.1267901 -0.1251147
0.45534518 -0.3460382 0.29867667 0.033393472 0.64752215 0.30993026 0.3260383 0.290697
-0.645988 0.6377257 -0.1639023 -0.57948714 -0.053619884 -0.19680558 0.55487096 0.16722517
-0.5630052 -0.15832809 0.5671 0.3334294 0.25648597 -0.07932669 -0.029415077 0.018536566
00000000: b271 1f3e c326 7f3e 3367 2fbf ba03 1e3f
00000010: 1c47 1f3f f5e5 55be 7bb6 a8be 981b 33bf
00000020: 2a33 9abe 8aef 783d ac06 16bf f689 07bf
00000030: 938e 173f 84aa 24bf 41ff 063f 3f49 2bbf
00000040: 9151 05bf f8bd 283f c518 f73e fefd c03d
00000050: 7f34 b6be 9a05 2d3f 4bd3 bf3e ca76 1d3c
00000060: 0bb0 303f 15db 0abf 9c51 99be 34a9 b6be
00000070: cba0 0dbd 1d28 2fbf 9bf4 0b3f c53c c73e
00000080: 2fda be3e e597 103e 7b94 2cbf 9604 0abf
00000090: 48ea 81be 6acc f3be b631 31bf 3859 183f
000000a0: 2716 1dbf 604c 00bf 82dd e4be 7392 d53e
000000b0: 625e 05bf 4341 343f ebd1 e3be 1831 433d
000000c0: e8d6 023f b298 29bf 1e41 9b3e e2fc 33bf
000000d0: 7a4e 01bd 43c1 313e 301d 233e 0f5a 03bf
000000e0: 018a dcbe 3e9f 06bf 884c 2e3f 3422 ce3e
000000f0: d91e e93e d053 303d 6435 1d3f fafb 903e
00000100: f1fb 2b3f f9de 833e 8f2f c83e 3e17 253e
00000110: e716 2d3f 2594 2dbf 66ca f7be a355 a43d
00000120: b024 0ebc 79d6 713d a4d7 e9be 627f 3c3d
00000130: 2522 0abf a696 f83e 19fe dcbe 73c0 a3be
00000140: f141 e0be a5a7 f7be 1dc2 e0be d0bf e63e
00000150: d8a9 9f3e 47e2 893e 830e 23bf 7168 e23e
00000160: 9977 2fbf 40e2 06bf 3f49 b13e d59e e9be
00000170: 5bbd 843e 9093 233f b04f 16bf 81bc 323f
00000180: 4e22 4abd 5b07 d1be e2a2 9abe 4c30 9c3e
00000190: 622d a93e 5af6 593e 0d7a a93e 45ab 23be
000001a0: d3d1 443e 4eb0 03bf 5b1f 9ebe f92f 89be
000001b0: af82 253f d7fc 64bd 8902 44be 0111 0e3e
000001c0: b1e9 fbbe 485a 213f 1f62 d23d 5a26 65be
000001d0: 9b83 883e 2c43 9cbc 3204 20bf 6c87 1a3f
000001e0: 9deb 44be 3afc dd3e 9b7a 8bbe 3bd4 353d
000001f0: fa26 7dbd 1809 f33e acca 5b3e b37f 21bd
00000200: f149 97be 4dba 1fbf acbb 25bf e419 973d
00000210: d0e2 013f afc9 903d 6970 323f 2ba6 8ebe
00000220: 51d5 1e3f 85af 063f 8666 043e 8b17 c8be
00000230: be2c b4be 532d 2fbf 7e87 d0be efb1 0a3f
00000240: e1ae de3e 193c 3dbe 3593 0abe 24fb 0ebf
00000250: 5aa6 c7be 001d 2bbe 2599 6cbe c8bf 173e
00000260: 4e04 df3e 5d17 92be ecef 853e a805 19bf
00000270: 1ce2 f6be cbd7 e03d a3c2 08bf 2e59 4fbd
00000280: 1def 3fbe e1a1 1c3e 323d 993d fe80 d4bd
00000290: 9f67 1cbf 785d 2f3f ae2e 233f 0144 41be
000002a0: f753 23be 2813 7d3e cae4 193f 555f a8be
000002b0: 03c4 27be a2b7 ee3d 343f 24bf 73f7 153f
000002c0: 59e7 0d3f 6788 153f fe78 ef3e 16f0 94be
000002d0: 32ab 97be 4c63 043e 03d3 17bf 6d13 2a3f
000002e0: eddc 1dbf 2e78 cf3e 3c77 05be 956f aa3e
000002f0: 12b8 0d3f 7eeb c23e 37ea 2fbb ff6b fdbe
00000300: 76b1 3c3c 0684 07bf 1dd3 86be 5902 b23e
00000310: c7ac 873e 16e4 523e f9a3 183f 1cc4 663b
00000320: a192 c1be 4bdf 93be 5cb1 173f c607 d2be
00000330: 9d68 81bd 17eb f0bd f1f4 4fbe 8d0a c7bd
00000340: 5f1f fdbd d438 483d 095b f53e 5acc f43d
00000350: b9ed 0b3f c6d0 a93e eb57 6bbe 6e2e 223f
00000360: 0c8a 603e f070 26bf cb44 f83c 80f9 00bf
00000370: 237f 0dbd 4ca0 033e 6654 f4be 59d6 573e
00000380: 7b49 323f 8359 2cbf 8503 2e3f e710 053f
00000390: 1ccb 16bc ff4e 053f 44d5 01be 111e 00be
000003a0: 0123 e93e eb2b b1be 26ec 983e 98c7 083d
000003b0: 03c4 253f 2eaf 9e3e 7eee a63e 3dd6 943e
000003c0: 785f 25bf fe41 233f 01d6 27be 4559 14bf
000003d0: 86a0 5bbd 6787 49be 060c 0e3f 133d 2b3e
000003e0: 1c21 10bf c220 22be 772d 113f 42b7 aa3e
000003f0: 2152 833e 0876 a2bd e3f7 f0bc ffd9 973c

l1.bias f4 [128]
0.5878435 -0.25159767 -0.57965976 0.26433757 -0.3777562 0.67295814 -0.5908209 -0.64170176
0.38413727 0.11653719 -0.57732797 -0.01375616 -0.34665626 -0.6455598 0.37084305 0.4323159
-0.3899386 0.7020737 0.22185777 -0.23926374 -0.33142158 -0.08949663 -0.452544 -0.38284704
0.07674934 -0.35373673 0.009909794 0.24634151 0.65032005 -0.45591277 0.517495 -0.30582067
0.48844975 -0.090215065 0.11450148 -0.22125806 0.59899235 0.24189821 0.45327848 -0.39773828
-0.38603148 0.2021001 -0.36572725 0.6710138 -0.014333553 0.4067632 -0.024690785 -0.63066846
0.3974965 0.40839353 -0.2122095 0.5492985 -0.42838818 -0.22093521 -0.3193493 0.5425293
0.34413725 -0.5291751 -0.15262155 0.39157563 0.15101111 0.6674461 -0.3098002 -0.58078265
0.5332435 -0.56347835 0.3054808 -0.53454715 0.4928352 -0.19623283 -0.6415308 0.017455608
0.15590352 0.70388347 -0.13192706 -0.22203882 0.49945295 -0.34680176 0.060554184 -0.65961677
-0.57935286 0.38538188 0.5102059 0.29679576 -0.14041187 -0.47935525 0.07005372 0.6959113
0.41958788 0.5331778 -0.22824521 0.27538228 -0.63406706 0.5377821 0.62555426 -0.47097814
0.33460435 0.37292126 -0.05900364 -0.3487004 0.04554569 0.5726944 -0.67819226 0.53474253
0.35633564 0.2971025 0.15592588 0.36871627 0.5636453 -0.45999616 -0.45674968 0.5733802
-0.4581997 0.11993447 0.5437046 0.09577924 0.57621473 -0.04691753 -0.26295513 -0.30431205
0.30726308 0.30191222 0.5036716 -0.542151 -0.6008628 0.054930802 0.3989229 -0.4427541
00000000: e97c 163f 69d1 80be 9564 14bf 4157 873e
00000010: 4369 c1be fc46 2c3f 0a40 17bf 9146 24bf
00000020: a4ad c43e 0dab ee3d c4cb 13bf 8461 61bc
00000030: ee7c b1be 6843 25bf 24df bd3e 8258 dd3e
00000040: 08a6 c7be 1abb 333f af2e 633e 8e01 75be
00000050: 17b0 a9be 024a b7bd d9b3 e7be 8704 c4be
00000060: c22e 9d3d fb1c b5be b05c 223c f340 7c3e
00000070: 607b 263f 666d e9be 8d7a 043f 8794 9cbe
00000080: 1616 fa3e adc2 b8bd c07f ea3d 7991 62be
00000090: 9057 193f 2ab4 773e 1e14 e83e 5aa4 cbbe
000000a0: eba5 c5be 54f3 4e3e 9a40 bbbe 8fc7 2b3f
000000b0: 47d7 6abc 4443 d03e 5444 cabc 7d73 21bf
000000c0: a984 cb3e f518 d13e 724d 59be d49e 0c3f
000000d0: b255 dbbe d73c 62be c081 a3be 33e3 0a3f
000000e0: c232 b03e 0578 07bf d348 1cbe 9a7c c83e
000000f0: a8a2 1a3e bfdd 2a3f 229e 9ebe 2cae 14bf
00000100: a582 083f 1e40 10bf fb67 9c3e 15d8 08bf
00000110: e554 fc3e 42f1 48be 5d3b 24bf 10ff 8e3c
00000120: 2ca5 1f3e b531 343f e317 07be 255e 63be
00000130: 4cb8 ff3e 0090 b1be aa07 783d a5dc 28bf
00000140: 7850 14bf c650 c53e db9c 023f 9df5 973e
00000150: 21c8 0fbe 0d6e f5be 5378 8f3d 3e27 323f
00000160: 39d4 d63e 577e 083f 1db9 69be e8fe 8c3e
00000170: 3852 22bf 16ac 093f 5324 203f 0c24 f1be
00000180: 4351 ab3e 89ef be3e cdad 71bd dc88 b2be
00000190: 1e8e 3a3d 1a9c 123f 029e 2dbf e3e4 083f
000001a0: a071 b63e d21d 983e 09ab 1f3e 61c8 bc3e
000001b0: 0f4b 103f 9e84 ebbe 18db e9be 0bc9 123f
000001c0: 2799 eabe 34a0 f53d 3a30 0b3f e827 c43d
000001d0: cf82 133f 992c 40bd 0ea2 86be cace 9bbe
000001e0: 9651 9d3e 3d94 9a3e 9ff0 003f 68ca 0abf
000001f0: 25d2 19bf 1fff 603d 9f3f cc3e aab0 e2be

l2.weight f4 [128, 128]
0.05997356 0.077388816 0.03713076 0.037593525 -0.027611975 0.02571899 0.075925395 0.02680233
-0.0055693323 0.054108348 0.083297655 -0.016252149 0.0032032079 -0.065029085 -0.052546367 -0.0008268578
0.01023638 -0.023381375 -0.0055865548 -0.052632622 -0.07709536 -0.077224605 0.06918781 0.06369209
-0.07442571 0.055561032 0.07090622 -0.027418442 0.021996023 -0.074125394 0.037313495 0.082317084
0.04295656 -0.027288517 0.036035657 -0.056433063 0.047841355 0.03561764 0.025655564 0.035241075
0.07411483 0.06405631 0.026840316 0.06488237 -0.01109148 -0.039368365 0.06511371 -0.03412906
-0.0026464665 0.072315626 -0.01329954 0.07636049 -0.06955622 0.075219005 -0.036966957 -0.06484188
-0.031680062 0.033014886 0.062785916 0.08719434 -0.024404688 0.009447483 0.059132636 -0.021421071
-0.049415804 0.060509663 -0.021963235 -0.006478462 0.042583574 0.041466728 0.025574844 0.005573188
-0.046954125 0.04436454 0.011262491 -0.06354347 -0.06630154 0.04373985 0.0040289722 0.002079989
0.026701378 0.015114949 -0.009478389 0.057843562 0.07337454 -0.01615692 0.025091812 0.07690917
0.05781421 -0.08804881 0.07002303 -0.019427467 -0.05264735 -0.008922501 -0.0734187 -0.058810014
-0.07387609 -0.035069842 -0.038985223 -0.06909957 0.08109565 -0.079422735 -0.013111241 -0.01787052
-0.040642273 -0.05503448 -0.027604004 0.06642 0.08527757 0.015469828 -0.05469672 0.010846765
0.052870683 0.016243193 -0.07301466 -0.010315091 -0.055488843 -0.022236623 -0.08304658 -0.034427512
-0.0033440653 -0.07141261 0.009254407 -0.036457613 -0.07000883 0.03025746 -0.008724204 0.07654464
-0.026076533 0.014248418 0.00432042 -0.056505304 -0.08662972 0.014095447 0.02643125 0.015459278
0.0016441022 0.04677651 0.004215184 0.074277505 0.07871907 -0.025024617 -0.011371828 0.048349924
0.034355406 -0.06566179 0.037114702 -0.0036775013 0.05089236 0.0063905367 -0.056883723 -0.030368984
-0.005840989 -0.010366964 0.067476906 -0.07825075 -0.08174816 0.01323149 -0.018310823 -0.0038149164
0.070384175 -0.04436593 -0.048082076 0.078254186 -0.014965302 -0.061136506 -0.06086559 -0.00172035
-0.070941135 -0.022044288 -0.021755341 -0.017400788 0.010261535 0.0016933626 0.021319443 -0.043011006
-0.07215658 0.04950877 0.041933026 0.08695535 -0.02937783 -0.050963335 -0.020890877 -0.06621678
0.067527376 -0.04690836 -0.088356175 -0.009920549 0.08447297 0.07549318 0.062201466 -0.018713359
-0.03855832 0.04147279 -0.00861054 -0.021915087 -0.062367078 -0.070777915 -0.045724526 0.052660786
-0.048025206 -0.039265472 0.0826937 -0.068852976 -0.06687823 -0.019573592 0.048542645 0.024772916
0.08282207 -0.050751314 -0.004736578 0.04041174 -0.07790692 0.07171065 0.06276336 0.07090328
-0.014983058 -0.053115822 -0.017751083 -0.00049876905 -0.07623962 -0.062057752 0.02965847 0.04373198
-0.007466614 -0.05251201 -0.08233404 -0.029292986 -0.07149922 -0.0802889 -0.073308006 0.004843333
0.085810974 0.049285673 0.011123523 -0.030559443 -0.0657075 0.022209754 0.008552488 -0.02350367
0.052839052 0.069144376 -0.06889285 0.005254748 0.028713962 -0.04415617 0.058278028 0.03936327
-0.0682104 0.061083715 0.026348827 -0.021122556 -0.05222678 -0.048544616 0.06445761 0.08141921
00000000: d6a6 753d 077e 9e3d 6c16 183d abfb 193d
00000010: 8232 e2bc a2b0 d23c c67e 9b3d 8f90 db3c
00000020: f27e b6bb b7a0 5d3d f697 aa3d 3a23 85bc
00000030: e9ec 513b f82d 85bd dc3a 57bd 7dc1 58ba
00000040: 7db6 273c 4c8a bfbc 6b0f b7bb 4e95 57bd
00000050: 2ce4 9dbd ef27 9ebd 57b2 8d3d 0071 823d
00000060: 826c 98bd f793 633d 4837 913d a49c e0bc
00000070: 0131 b43c 0ecf 97bd 09d6 183d dc95 a83d
00000080: 38f3 2f3d 2b8c dfbc 209a 133d 5b26 67bd
00000090: 4cf5 433d cde3 113d 9e2b d23c f258 103d
000000a0: 84c9 973d f42f 833d 39e0 db3c 0ce1 843d
000000b0: 0ab9 35bc b940 21bd 565a 853d eaca 0bbd
000000c0: 5770 2dbb 371a 943d 50e6 59bc e362 9c3d
000000d0: 7e73 8ebd 6c0c 9a3d aa6a 17bd d2cb 84bd
000000e0: f4c2 01bd 9e3a 073d e795 803d f292 b23d
000000f0: 57ec c7bc 9ec9 1a3c 1035 723d 3e7b afbc
00000100: 3a68 4abd fbd8 773d 3eec b3bc 4749 d4bb
00000110: 1d6c 2e3d 04d9 293d 5682 d13c 4a9f b63b
00000120: f852 40bd 98b7 353d 5086 383c 1423 82bd
00000130: 1ac9 87bd 8f28 333d 7805 843b 6d50 083b
00000140: d9bc da3c b1a4 773c 3f4b 1bbc 5fed 6c3d
00000150: 6445 963d 845b 84bc 588d cd3c 8e82 9d3d
00000160: 98ce 6c3d ef52 b4bd 3c68 8f3d 5a26 9fbc
00000170: bfa4 57bd ae2f 12bc 8b5c 96bd c5e2 70bd
00000180: 594c 97bd 65a5 0fbd f8ae 1fbd 1384 8dbd
00000190: 7a15 a63d 63a8 a2bd 88d0 56bc 3265 92bc
000001a0: 8378 26bd d66b 61bd cb21 e2bc 3507 883d
000001b0: 02a6 ae3d 2975 7d3c ab09 60bd a1b6 313c
000001c0: ee8e 583d 7210 853c b688 95bd a100 29bc
000001d0: 4548 63bd 9429 b6bc 5314 aabd dd03 0dbd
000001e0: 1b28 5bbb c640 92bd cc9f 173c 9454 15bd
000001f0: ca60 8fbd 7ede f73c f7ef 0ebc 70c3 9c3d
00000200: 749e d5bc 3272 693c 4f92 8d3b 1b72 67bd
00000210: ec6a b1bd 97f0 663c 5986 d83c e948 7d3c
00000220: ea7e d73a ba98 3f3d 871f 8a3b ce1e 983d
00000230: 7737 a13d 6d00 cdbc e750 3abc 920a 463d
00000240: 41b8 0c3d b079 86bd 9605 183d 3c02 71bb
00000250: 8274 503d b567 d13b e8fe 68bd 60c8 f8bc
00000260: c465 bfbb 33da 29bc 5531 8a3d ee41 a0bd
00000270: 946b a7bd e4c8 583c 9400 96bc ad03 7abb
00000280: 9425 903d 0db9 35bd b6f1 44bd bb43 a03d
00000290: 0731 75bc 466a 7abd 324e 79bd 5e7d e1ba
000002a0: 9649 91bd 3996 b4bc 4238 b2bc 198c 8ebc
000002b0: ff1f 283c d2f3 dd3a 1da6 ae3c 4f2c 30bd
000002c0: d4c6 93bd b5c9 4a3d f7c1 2b3d a615 b23d
000002d0: c6a9 f0bc eebe 50bd 5823 abbc aa9c 87bd
000002e0: cb4b 8a3d fb22 40bd 15f4 b4bd cc89 22bc
000002f0: 2a00 ad3d 2b9c 9a3d f7c6 7e3d c24c 99bc
00000300: 54ef 1dbd 5fdf 293d 3913 0dbc 4587 b3bc
00000310: 9f74 7fbd 03f4 90bd a449 3bbd d6b2 573d
00000320: 14b6 44bd d5d4 20bd 515b a93d ca02 8dbd
00000330: 74f7 88bd cc58 a0bc a7d4 463d 92f0 ca3c
00000340: 9e9e a93d 9ce0 4fbd 4c35 9bbb c886 253d
00000350: aa8d 9fbd 09dd 923d 148a 803d bd35 913d
00000360: 807b 75bc fa8f 59bd b86a 91bc d3bf 02ba
00000370: 8523 9cbd 4530 7ebd 52f6 f23c 4e20 333d
00000380: 7faa f4bb d516 57bd c09e a8bd d8f7 efbc
00000390: 2f6e 92bd 826e a4bd 8222 96bd d2b4 9e3b
000003a0: aabd af3d c6df 493d 703f 363c cc57 fabc
000003b0: a791 86bd 3bf1 b53c bc1f 0c3c c58a c0bc
000003c0: c36d 583d 919b 8d3d b217 8dbd 0530 ac3b
000003d0: 8b39 eb3c 1add 34bd f1b4 6e3d 613b 213d
000003e0: e5b1 8bbd eb32 7a3d 7fd9 d73c 3609 adbc
000003f0: c0eb 55bd b8d6 46bd 5a02 843d 1dbf a63d

l2.bias f4 [128]
0.0199723 -0.012467855 0.07839562 -0.019459456 0.019098895 -0.012742848 0.08548167 -0.040857073
0.03668247 -0.032020755 0.065435745 0.05134969 -0.037126746 0.083569884 -0.014212953 -0.031014588
0.06893033 0.005584557 -0.048687857 0.0048140096 -0.0022718168 -0.0264568 -0.05941267 0.01803921
-0.01088216 0.0005809641 0.056879357 0.00055544707 -0.050315157 -0.03881483 -0.057669055 0.05586874
0.004839638 0.07426371 0.0056015844 0.048022598 0.06033427 0.007589941 -0.06628285 -0.007863544
-0.08250994 -0.06242955 0.04318403 -0.07988139 0.045133825 -0.019553062 -0.06799929 0.05968801
-0.026889537 0.08553111 -0.08353544 0.041893084 -0.03535093 -0.0040259026 0.07650255 0.010646044
-0.014923342 0.029359408 -0.09237929 -0.0036696435 -0.08447932 -0.07536944 0.045357086 -0.08514389
0.011957568 0.061652876 -0.04846186 0.06510233 0.051062066 -0.038478047 -0.003743752 -0.04264704
-0.06370235 0.05014947 -0.043290954 0.04157765 0.051071584 -0.07358565 0.07835797 -0.044850387
-0.06997504 0.07022777 0.030175924 -0.07888714 -0.08195541 0.07893244 0.00679941 -0.023835577
-0.08637505 0.0392869 -0.08633494 -0.05046646 -0.025240181 -0.06670456 -0.007987277 -0.068260156
-0.031949423 -0.062363047 0.06653716 0.06291202 -0.05398947 0.087001555 0.082589984 -0.024428997
-0.04235452 0.011206006 0.045574225 -0.08248288 -0.06207643 -0.025517717 -0.007860103 0.044037074
-0.06542811 -0.05690034 0.07170793 -0.0303273 -0.07909715 -0.017903147 -0.032422557 -0.030140057
0.019024463 -0.049100436 0.02495263 0.0883816 -0.07421329 -0.058528278 0.07987369 -0.00012002116
00000000: f39c a33c f945 4cbc e28d a03d 7069 9fbc
00000010: 4975 9c3c 61c7 50bc 0411 af3d bf59 27bd
00000020: 5c40 163d 3228 03bd 2d03 863d 0d54 523d
00000030: 3712 18bd b026 ab3d 72dd 68bc 4e12 febc
00000040: 582b 8d3d a9fe b63b eb6c 47bd d7be 9d3b
00000050: c3e2 14bb eebb d8bc b35a 73bd f7c6 933c
00000060: 164b 32bc d74b 183a 54fa 683d 6c9b 113a
00000070: 4417 4ebd 4dfc 1ebd 6336 6cbd 9fd6 643d
00000080: d395 9e3b 9217 983d 7f8d b73b 58b3 443d
00000090: 1121 773d 0ab5 f83b 4ebf 87bd 18d6 00bc
000000a0: f9fa a8bd 21b6 7fbd bde1 303d db98 a3bd
000000b0: 3fde 383d be2d a0bc 3643 8bbd 6a7b 743d
000000c0: 7247 dcbc ef2a af3d a114 abbd 1598 2b3d
000000d0: 23cc 10bd b8eb 83bb 5ead 9c3d bf6c 2e3c
000000e0: 0881 74bc 2483 f03c 5a31 bdbd 677e 70bb
000000f0: 7e03 adbd 4b5b 9abd 5ac8 393d eb5f aebd
00000100: ade9 433c ba87 7c3d f17f 46bd 5f54 853d
00000110: 7526 513d 289b 1dbd bc59 75bb aaae 2ebd
00000120: 6176 82bd 8869 4d3d db51 31bd 534d 2a3d
00000130: 7030 513d 13b4 96bd 257a a03d 0ab5 37bd
00000140: 134f 8fbd 94d3 8f3d 8033 f73c 958f a1bd
00000150: 3dd8 a7bd 55a7 a13d 96cd de3b d442 c3bc
00000160: 67e5 b0bd 4deb 203d 5fd0 b0bd ebb5 4ebd
00000170: 7fc4 cebc 669c 88bd 11dd 02bc fbcb 8bbd
00000180: 66dd 02bd 6570 7fbd a244 883d 04d8 803d
00000190: 1024 5dbd df2d b23d f024 a93d 521f c8bc
000001a0: ef7b 2dbd 6599 373c 0aac 3a3d c9ec a8bd
000001b0: db43 7ebd 880a d1bc a9c7 00bc 3860 343d
000001c0: 2cff 85bd 5510 69bd 9bdb 923d f570 f8bc
000001d0: b0fd a1bd 9fa9 92bc 84cd 04bd 48e8 f6bc
000001e0: 31d9 9b3c 8a1d 49bd 7569 cc3c 6a01 b53d
000001f0: 23fd 97bd 59bb 6fbd d194 a33d dfb3 fbb8

l3.weight f4 [5, 128]
-0.010136231 0.04954596 -0.06255812 -0.05108692 -0.06382222 -0.07464289 -0.06084037 0.052214798
-0.07588233 0.053010065 -0.02509878 0.04237716 -0.011409087 0.01615962 -0.046723545 0.083072945
-0.091995955 -0.022756523 -0.012489371 0.021362748 0.07589444 0.06952907 -0.09092308 -0.020282516
-0.08427562 -0.07677445 -0.05424022 0.07688804 0.06961094 0.010246442 -0.07162182 0.014057662
0.02500962 0.051406566 -0.0038265032 -0.008515646 -0.0017443402 -0.084259525 -0.021481924 0.04807945
0.0038129769 -0.053226147 -0.065706216 -0.017720645 -0.03867237 0.0012654603 -0.06769161 -0.006539276
0.020837758 0.07799372 0.029148048 0.030953491 0.07797208 0.063043185 0.005574564 0.05679181
0.025055198 -0.09339766 0.0821153 -0.036117084 0.027953904 -0.027157428 0.064695135 -0.058043946
0.059479274 0.081291065 0.05530485 0.062465973 0.005847196 -0.05011639 -0.050780077 0.07755684
0.0180082 0.006996264 -0.08221168 -0.026247347 0.005054411 0.013705705 -0.008078486 0.0063731843
-0.00089735724 -0.081766605 -0.02216417 -0.00055022136 0.020209372 -0.06668831 -0.029715551 -0.028015744
0.05879883 -0.037138186 0.08016167 -0.06085577 0.037210032 -0.019215604 0.020261686 -0.0076906974
0.041390985 -0.07669131 -0.019621994 -0.019474411 -0.014787112 0.07270959 -0.06790635 -0.05648409
0.07987721 -0.08312593 0.056688335 -0.04752232 -0.04138958 -0.026044672 -0.07673133 -0.037135206
-0.08941558 -0.06638258 0.034819085 0.006964038 -0.032750245 0.02272424 0.06936814 -0.014069662
0.076561585 0.026655165 0.054297812 -0.007923656 0.010502504 -0.026872806 0.065024555 0.03543314
-0.048572376 0.06854997 0.08313951 0.04541748 0.07707232 0.030808453 0.0818464 -0.026672293
0.024030732 0.026624566 0.00017685021 0.06657443 0.009226719 -0.0778307 0.006892761 -0.08246599
-0.019966492 0.050646435 0.0848469 -0.05833661 -0.07205909 0.023181725 0.07779087 0.083783396
-0.07654862 0.023979679 -0.08738962 0.08715292 0.054114852 -0.061379924 -0.06384968 0.08212785
0.02635003 0.0017742157 -0.04233548 0.024520349 0.0628536 0.017346898 -0.002381275 -0.053330127
0.08501381 0.048055463 -0.03560634 0.042460985 0.025138108 0.020983372 0.025250118 -0.05404091
0.05664403 -0.007610191 -0.04139633 -0.022270259 0.07074171 0.07190088 -0.0022718732 0.06882809
0.005812751 -0.08577324 -0.08923589 0.011407609 0.019040031 0.032959882 -0.04306445 -0.066181034
-0.025058791 -0.028583512 0.084990874 0.024226356 0.03599509 -0.031074733 -0.010074889 -0.026228365
-0.024223566 -0.07432294 0.016596047 -0.061369937 -0.08011971 0.054188628 0.06938002 0.038195472
0.07489765 -0.08608809 0.044570465 0.034779653 0.056861978 -0.061567686 -0.0027532817 -0.038888358
-0.086887255 -0.049396727 0.072883144 -0.05423712 0.05692883 -0.029188955 0.026068522 -0.035649862
-0.0220838 -0.038371675 0.017494174 0.061287872 0.07166332 -0.047252055 -0.025369229 0.016014071
-0.07739806 0.020886138 0.007861887 -0.04914807 -0.017447246 -0.029440422 0.0065255966 0.06878804
0.014488739 0.06833383 -0.037299737 0.006076199 0.08676621 0.026155518 0.08871614 0.032775577
0.011273326 -0.03568026 0.019979095 -0.032431085 0.0055574994 -0.051028747 -0.044307128 0.08108824
00000000: 6f12 26bc b4f0 4a3d 791e 80bd 8540 51bd
00000010: 39b5 82bd 5fde 98bd c033 79bd 2fdf 553d
00000020: 3268 9bbd 1521 593d f59b cdbc ac93 2d3d
00000030: 2eed 3abc 2e61 843c 3061 3fbd 2622 aa3d
00000040: 6068 bcbd e36b babc 38a0 4cbc ee00 af3c
00000050: 8b6e 9b3d 4265 8e3d e135 babd 8527 a6bc
00000060: b298 acbd ec3b 9dbd fe2a 5ebd 7a77 9d3d
00000070: 2e90 8e3d b1e0 273c 76ae 92bd 1c52 663c
00000080: f9e0 cc3c b18f 523d 12c6 7abb 3585 0bbc
00000090: 58a2 e4ba 4290 acbd dcfa afbc f5ee 443d
000000a0: 23e3 793b a903 5abd fb90 86bd e32a 91bc
000000b0: eb66 1ebd cddd a53a e6a1 8abd 6c47 d6bb
000000c0: f2b3 aa3c 2cbb 9f3d e3c7 ee3c 2d92 fd3c
000000d0: d3af 9f3d c91c 813d d5aa b63b 879e 683d
000000e0: 8f40 cd3c 4647 bfbd 112c a83d 82ef 13bd
000000f0: 96ff e43c 4179 debc e27e 843d 7dbf 6dbd
00000100: 8aa0 733d ee7b a63d 5787 623d 52dc 7f3d
00000110: d699 bf3b d846 4dbd c5fe 4fbd 1fd6 9e3d
00000120: ef85 933c eb40 e53b 995e a8bd ad04 d7bc
00000130: 799f a53b e58d 603c a05b 04bc 25d6 d03b
00000140: a03c 6bba 4075 a7bd a291 b5bc bb3c 10ba
00000150: 208e a53c e193 88bd 076e f3bc 4681 e5bc
00000160: 0bd7 703d 361e 18bd cd2b a43d e643 79bd
00000170: 8c69 183d 0b6a 9dbc d6fb a53c 3f02 fcbb
00000180: 9889 293d 5510 9dbd 4ebe a0bc cd88 9fbc
00000190: a545 72bc c4e8 943d 7c12 8bbd dc5b 67bd
000001a0: aa96 a33d ed3d aabd 0732 683d c4a6 42bd
000001b0: 1f88 29bd a35b d5bc 5125 9dbd 161b 18bd
000001c0: 841f b7bd 97f3 87bd 759e 0e3d 9632 e43b
000001d0: 1f25 06bd 2f28 ba3c e210 8e3d 7184 66bc
000001e0: 52cc 9c3d ef5b da3c 6267 5e3d 39d2 01bc
000001f0: b212 2c3c 5c24 dcbc 982b 853d 5722 113d
00000200: d4f3 46bd ed63 8c3d 0c45 aa3d ae07 3a3d
00000210: 18d8 9d3d 0262 fc3c 169f a73d da7f dabc
00000220: 19dc c43c c31b da3c de70 3939 2d58 883d
00000230: aa2b 173c b465 9fbd acdc e13b eee3 a8bd
00000240: c590 a3bc a372 4f3d 36c4 ad3d 5ff2 6ebd
00000250: b793 93bd 9ae7 bd3c d250 9f3d a196 ab3d
00000260: 86c5 9cbd 0871 c43c 54f9 b2bd 3b7d b23d
00000270: 89a7 5d3d 8469 7bbd 9fc3 82bd a532 a83d
00000280: 05dc d73c cd8c e83a f867 2dbd e6de c83c
00000290: 63b9 803d 151b 8e3c 2a0f 1cbb b170 5abd
000002a0: b81b ae3d ced5 443d f4d7 11bd 92eb 2d3d
000002b0: 6fee cd3c 52e5 ab3c 56d9 ce3c 005a 5dbd
000002c0: 9203 683d e95e f9bb 338f 29bd 1e70 b6bc
000002d0: 08e1 903d c540 933d b5e3 14bb bef5 8c3d
000002e0: e478 be3b e1a9 afbd 4ec1 b6bd fbe6 3a3c
000002f0: d7f9 9b3c f100 073d 5964 30bd ec89 87bd
00000300: 1848 cdbc f827 eabc b20f ae3d 5a76 c63c
00000310: 966f 133d 7090 febc 2611 25bc dedc d6bc
00000320: 8070 c6bc a036 98bd 6ff4 873c 0b5f 7bbd
00000330: cd15 a4bd e5f4 5d3d 1d17 8e3d db72 1c3d
00000340: f063 993d f44e b0bd 858f 363d 1c75 0e3d
00000350: 1be8 683d 662e 7cbd 6770 34bb 6649 1fbd
00000360: f2f1 b1bd 3954 4abd c243 953d be27 5ebd
00000370: 342e 693d ad1d efbc a78d d53c 9705 12bd
00000380: 16e9 b4bc 9e2b 1dbd f14f 8f3c fe08 7b3d
00000390: 38c4 923d 5f8b 41bd 21d3 cfbc f12f 833c
000003a0: e082 9ebd 6819 ab3c 25cf 003c 7d4f 49bd
000003b0: 87ed 8ebc 0a2d f1bc acd4 d53b bee0 8c3d
000003c0: 2d62 6d3c 9bf2 8b3d 9cc7 18bd da1a c73b
000003d0: 7cb2 b13d 1944 d63c cfb0 b53d af3f 063d
000003e0: c2b3 383c 7725 12bd 33ab a33c 75d6 04bd
000003f0: af1b b63b 8503 51bd 647b 35bd 9711 a63d

l3.bias f4 [5]
0.06278982 -0.011846971 -0.07186891 0.054545593 0.019628791
00000000: f397 803d cc19 42bc 0230 93bd 336b 5f3d
00000010: 8fcc a03c
